Software Configuration/models/food_monitoring_model_cycle_2.pth (torch, 73060 bytes, 6 tensors)

fc1.weight f4 [128, 4]
000000 80 86 a8 be d0 fc 08 be a4 5d 1c be 94 b1 96 3e
       -0.32915115 -0.1337769 -0.15270096 0.29432356
000010 42 a1 c9 be 0c 52 ae be 35 d6 8f 3e df 1c cb bd
       -0.39380842 -0.34046972 0.28093114 -0.09917616
000020 b8 d7 98 be 4f f9 39 3e 08 d0 f2 bc 57 dd 19 bf
       -0.2985208 0.1816151 -0.029640213 -0.6010336
000030 c7 b8 cf 3e 86 36 35 3e aa 6e cf 3e 41 54 01 3f
       0.4057066 0.1769658 0.40514117 0.50519186
000040 b2 5c a9 3e 62 f9 b2 be 44 70 e5 be 84 f9 fd be
       0.33078533 -0.3495589 -0.44812214 -0.49604428
000050 5f 48 8d bd 7c b1 55 3d 06 5d 32 be f1 51 90 be
       -0.06898569 0.052171215 -0.17418298 -0.28187516
000060 e4 ad b5 3e 60 55 83 bd 38 0d e3 bd 48 59 b8 bd
       0.3548423 -0.06412768 -0.11086506 -0.09001404
000070 90 e4 1d 3d 0a 57 87 3e 70 1a b3 be a4 f7 ca 3e
       0.038548052 0.26433593 -0.34981108 0.3964206
000080 ea 2a a1 3e 80 e2 b0 3c 3e 06 ff be 8e 04 bb be
       0.31478053 0.021592379 -0.4980945 -0.36526912
000090 9c 74 5f be ac 4d 82 be 4c f9 bd be 68 3f d6 be
       -0.21821827 -0.25449884 -0.3710426 -0.4184525
0000a0 eb d1 f0 3c 3d 00 c9 3e 24 2b 29 3e 84 be f7 be
       0.029396972 0.39257994 0.16520363 -0.4838754
0000b0 14 cc ca 3e e6 27 9e be 28 19 e6 be fa 0f e7 be
       0.39608824 -0.30889815 -0.44941068 -0.45129377
0000c0 d0 ec 08 3e 56 2e c5 3e 31 dd 9c 3d c0 dc d7 3e
       0.13371587 0.38511914 0.076593764 0.42160606
0000d0 54 1d 2b be 9c bb f0 3e 0a 2d d4 be 60 73 ca bd
       -0.16710407 0.47018135 -0.41440612 -0.09885287
0000e0 00 ee e1 bd a8 7e ce 3d c8 fe 8d be 08 15 d3 bd
       -0.11031723 0.100827515 -0.27733445 -0.10306746
0000f0 1c 75 9d 3d f3 7f ff 3e 88 4a 19 3e a0 7d 91 3e
       0.076883525 0.49902305 0.14969838 0.28416157
000100 8a 49 d3 be 80 5a d2 3c 50 ea 8f be 90 6a e4 be
       -0.41267043 0.02567792 -0.28108454 -0.4461255
000110 ea 4d f4 be 40 4f 71 bd 9e a1 87 be 30 5f 64 3d
       -0.47715694 -0.05891347 -0.26490492 0.05575484
000120 10 d6 8d ba 60 10 32 be 35 bb b3 3e 08 a7 36 3e
       -0.0010821242 -0.17389059 0.35103765 0.17837155
000130 2a b1 81 3d 3e f0 2c 3d 13 2d 81 bd 2c 5c 30 3d
       0.063326195 0.0422213 -0.06307425 0.043056652
000140 51 dc d6 3e fe 84 84 be 96 59 e9 3e 1c f9 2e 3d
       0.41964963 -0.25882715 0.4557616 0.042718038
000150 74 d1 95 3e 9e cd 9d be b6 28 01 bd 86 bc 77 be
       0.29261363 -0.30820936 -0.031532966 -0.2419301
000160 2a ff 68 be 25 6d d8 3e 17 66 e6 3e 31 94 b3 3d
       -0.22753587 0.4227077 0.44999763 0.087685
000170 92 69 f6 be fa b4 99 be 60 50 51 3b c0 c2 69 be
       -0.4812742 -0.30020887 0.0031938776 -0.22828197
000180 24 d7 04 bf 12 5b 7a bd a0 2c 13 3c 8a 22 1c be
       -0.5189078 -0.061122008 0.008982807 -0.1524755
000190 4a 2a 96 3e fd cc 55 3d d3 e5 d8 3e c4 b1 e8 3e
       0.2932914 0.052197445 0.42362842 0.45448124
0001a0 24 aa 68 3d 49 14 1f 3f 0e 1c 52 3d 21 e6 45 3e
       0.056802884 0.6214033 0.051296286 0.19326068
0001b0 96 5a eb 3e d1 63 00 3f 48 6e 28 3d 81 e1 3b be
       0.4596755 0.5015231 0.041120797 -0.18347742
0001c0 0a a0 f5 3e 04 8e 05 be 6a 31 d3 be ca be ce be
       0.47973663 -0.13042456 -0.41248637 -0.40379936
0001d0 62 6a e1 3e 0b 8b bb 3e c7 59 bc 3e e4 8d a9 be
       0.44026476 0.3662952 0.36787245 -0.33116066
0001e0 86 e1 ff be 40 ac 77 3e a8 39 99 bd 40 2d e5 bc
       -0.49976748 0.24186802 -0.074817 -0.027975678
0001f0 a8 37 46 3e 30 30 f6 3e f2 5f d2 be 4e e4 8e be
       0.19357169 0.4808364 -0.41088825 -0.27908558
000200 30 c4 3e 3d a8 a9 43 be 30 99 4f bd 00 01 46 3b
       0.046573818 -0.19107687 -0.0506832 0.0030212998
000210 1b 47 22 be 72 c0 be be 98 38 6d 3e 5a b2 64 bf
       -0.15847437 -0.372562 0.2316612 -0.8933464
000220 fb 8e 1a 3f d1 7a e1 3d 90 ce 38 3d 74 82 2e 3e
       0.6037442 0.110097535 0.04511887 0.17041951
000230 e9 1d 28 bf 44 00 f1 bd c0 a4 e0 3a 04 da 4e 3e
       -0.6567064 -0.11767629 0.0017138943 0.20200354
000240 b5 37 d4 bd 78 86 44 3e 9a 83 f1 3e 51 78 53 3e
       -0.10362188 0.19191921 0.47170717 0.20651366
000250 12 ad 19 3e 69 4e 31 3f 90 6a 46 3a 94 a0 2e be
       0.15007427 0.6926027 0.00075689796 -0.17053443
000260 dc 6d 16 be 52 06 8c be 88 29 36 be e8 d8 eb 3e
       -0.14690346 -0.27348572 -0.1778928 0.46063924
000270 78 00 d7 bd 60 34 ed bd 78 12 c6 bd a8 c1 90 bd
       -0.10498136 -0.11582255 -0.096714914 -0.07068187
000280 72 63 82 be 30 b7 31 be 08 30 db be 74 9f 14 be
       -0.25466496 -0.17355037 -0.42810082 -0.14513952
000290 5c b2 c3 3d 2c c5 e5 3e cd 01 a9 3e 68 00 cc 3d
       0.09555504 0.44876993 0.33009186 0.09961015
0002a0 98 3f e9 bd ea ef d1 be 9a d0 98 be cc f5 dd be
       -0.11389083 -0.41003352 -0.2984665 -0.4335159
0002b0 2a 66 c0 be 5a 99 a5 3e f3 f9 fb bd e4 55 82 3d
       -0.37577945 0.3234356 -0.123035334 0.063640386
0002c0 9f a6 84 3e 7f 8b 3d bd 4c 03 b6 3e 8a 0a 9c 3e
       0.25908372 -0.046275612 0.3554939 0.3047679
0002d0 8c 09 c2 3e e0 41 1c 3e b4 1c eb be 4e fe b6 be
       0.3789791 0.15259504 -0.45920336 -0.35740894
0002e0 fc c6 b1 be 9c be cb be 02 db f6 be 8e 44 8f be
       -0.34722126 -0.3979386 -0.48213965 -0.2798199
0002f0 79 ff 11 3f d6 f6 9e 3e 23 ea de 3e 1e 3c ae be
       0.57030445 0.31047696 0.43538007 -0.3403024
000300 dc 38 1d 3e 08 a3 5b 3e 5e 39 ca be 82 9f c2 be
       0.15353721 0.2144891 -0.39496893 -0.3801232
000310 9c 59 d8 3e 54 bb 65 3e 3e c3 ce be c6 b4 ce be
       0.42255867 0.22434741 -0.40383333 -0.40372294
000320 18 4d e7 be d0 7a 0b 3e 00 ba f8 bc 00 10 2f bc
       -0.45176005 0.13621068 -0.03036213 -0.010684967
000330 9c ae 17 bf dc 7c 78 be 57 a2 96 3e b4 19 cb be
       -0.5925081 -0.2426638 0.2942073 -0.39668047
000340 b4 b5 bb be 30 eb db bd 56 e3 fc be 9a cd c5 be
       -0.36662066 -0.10738218 -0.49392194 -0.38633424
000350 78 fd d7 3e 25 56 16 3f c9 8d 09 3f 1a b3 f3 bc
       0.4218557 0.58725196 0.5373197 -0.029748488
000360 f8 1b 3e 3f e7 be e0 3e 54 2a db 3e f3 93 d7 3d
       0.74261427 0.43895647 0.4280573 0.10526266
000370 07 58 15 be c4 25 0f bf ba f5 93 3e 9b 00 4f be
       -0.14584361 -0.55917 0.28898412 -0.20215075
000380 f0 ab eb 3e c8 ae 32 be 58 4a a3 bd 4c 58 33 be
       0.46029615 -0.17449486 -0.07973164 -0.17514151
000390 36 6a a2 3e a8 e1 c9 3d 0f 71 29 3e 4a 7b 12 3e
       0.31721658 0.09857494 0.16547035 0.14304844
0003a0 df 0c fd be 5e 11 dd be e0 46 b8 3e a4 49 61 3c
       -0.49423882 -0.43177313 0.35991573 0.013750467
0003b0 ae d8 e8 3e cc dc 7a be 96 61 df be 98 0b 9f be
       0.45477813 -0.2449829 -0.4362914 -0.31063533
0003c0 ef 41 14 be c1 65 d8 bd ac ac d3 bc ee 3a 89 be
       -0.14478277 -0.10566283 -0.025839172 -0.26802772
0003d0 b0 0b 05 bd 81 02 a6 3d 85 8e 10 3e e3 d3 56 be
       -0.03248185 0.08105946 0.14116867 -0.20979266
0003e0 16 31 0b 3f 51 90 75 3e 4f 24 cc 3d de b5 4d 3d
       0.54371774 0.23980834 0.09967863 0.05022227
0003f0 89 d9 5a be 86 c1 3c 3e fe 6b 6b bd 13 a9 85 be
       -0.21372046 0.18433198 -0.057476036 -0.26105556

fc1.bias f4 [128]
000000 ca 5c c3 3e 02 05 0f bd e5 79 d0 3d ca 81 41 3f
       0.3815673 -0.034916885 0.101794995 0.7558867
000010 06 c6 a7 be 10 1c 87 be d4 74 ff be 30 c8 71 bd
       -0.32768267 -0.26388597 -0.4989382 -0.059028804
000020 72 8c d0 be 76 f8 a7 3e 52 cd e3 3e 3c 20 2d 3e
       -0.4073215 0.32806748 0.44492584 0.16906828
000030 47 cb 26 3e e4 28 0a 3e f6 f3 c1 be ff 8c f5 3e
       0.16288482 0.13492161 -0.3788144 0.47959134
000040 5a 8e f6 be 38 94 22 be e2 30 55 be a8 0a e9 be
       -0.4815548 -0.15876853 -0.20819429 -0.45515943
000050 45 4a c8 be a0 b9 67 3d 5e ab 15 3f c5 d6 ba 3d
       -0.39119163 0.05657351 0.5846461 0.09122995
000060 3a f9 a8 be 6d f4 f0 3e c8 df 42 3e fc 6e c4 3e
       -0.33002645 0.47061482 0.19030678 0.38365924
000070 fe 64 c8 3e 68 09 e1 3e 2a b1 bd 3e e0 88 de bc
       0.3913955 0.4395249 0.37049228 -0.027164876
000080 be 91 c5 3e a8 3e 9f bf 1a 2c bd 3e a7 09 20 bf
       0.38587755 -1.2440996 0.3694771 -0.6251473
000090 90 4a 1d 3f 99 f3 15 3f 0e 2a b8 be d2 0b 94 be
       0.614419 0.58574826 -0.35969585 -0.28915268
0000a0 b0 40 ce 3d 1a 18 55 be 20 f9 45 bd db 9e ee be
       0.10070932 -0.20809975 -0.048333287 -0.46605572
0000b0 72 49 bb bd a0 61 a4 bc d6 84 9a be 88 68 58 3e
       -0.09144868 -0.020066082 -0.3017947 0.21133626
0000c0 dc 0a cc be a0 06 e2 be 48 7e 20 be 9b 2d 36 bf
       -0.39852035 -0.4414568 -0.15673172 -0.7116334
0000d0 b0 ac 22 be 6c 7f 89 3d a5 e9 8d bd e9 e1 ed be
       -0.15886188 0.06713757 -0.0692933 -0.46461418
0000e0 04 98 d5 3e ec 3d 3f 3e a2 af ad 3d a8 5c e2 bd
       0.4171754 0.18675965 0.08480765 -0.11052829
0000f0 c6 91 ae 3e 2e 5c be bd c8 e4 aa 3e df 13 07 bf
       0.3409559 -0.09294926 0.3337767 -0.52764696
000100 12 37 93 3e b2 fa 6d 3d 28 59 b3 3e 0a 23 69 3e
       0.28752953 0.05810041 0.35028958 0.22767273
000110 fe 93 5e bd b2 fd f8 3c 80 71 cd 3c 80 5a e7 be
       -0.054340355 0.030394409 0.025078535 -0.45186234
000120 af 4c b9 3e b0 5f 24 3f 4e f8 b1 3e 2e 88 6b be
       0.36191317 0.6420851 0.34759754 -0.23001167
000130 4c 08 37 be 04 82 b1 3d 48 f0 b9 bd 3e 32 14 3f
       -0.17874259 0.08667377 -0.09079033 0.57889163
000140 36 1f 55 3e 40 38 43 3e a4 96 b2 be d2 3d c6 3e
       0.20812687 0.19064426 -0.34880555 0.3871904
000150 e0 37 52 3d a2 6b b7 bc e3 c1 57 3e 04 ee 82 be
       0.051322818 -0.02239019 0.21070056 -0.25572217
000160 30 03 f9 3d e8 85 2f be c6 9c 20 bf 93 aa 2e 3e
       0.12158811 -0.17140925 -0.6273922 0.17057256
000170 dc f7 b0 3e 2a e4 a5 3e 02 33 35 3f 8c 44 d5 be
       0.34564102 0.32400638 0.70780957 -0.4165386
000180 70 98 9c be 20 2d 7c bd da 10 23 be 8f 30 bf 3e
       -0.3058505 -0.061566472 -0.15924397 0.37341735
000190 68 11 83 bd 00 90 62 ba d4 ca 52 be 48 80 eb be
       -0.06399804 -0.00086426735 -0.20585185 -0.45996308
0001a0 14 9f 76 be b3 e6 32 be ab 0e f8 be 3b 41 b7 3e
       -0.24084121 -0.17470817 -0.4844869 0.35791954
0001b0 97 6b 83 bf 51 55 d5 bd 00 b0 aa 3c 08 cb 8a be
       -1.0267209 -0.104166634 0.020835876 -0.27108026
0001c0 9e 1c 0b 3e 28 f4 d5 3d ec ac 91 3e 51 a6 3e 3d
       0.13585135 0.1044696 0.2845224 0.04654533
0001d0 90 12 cc bd 9d 5d fa 3e e1 99 35 3e b0 f9 20 3e
       -0.09964478 0.48899546 0.17734481 0.15720248
0001e0 db 82 64 bd 00 30 a9 ba e0 fe 41 be f9 28 83 bf
       -0.055788856 -0.0012907982 -0.18944883 -1.0246879
0001f0 e9 67 0f 3f ea cf 85 bf b4 b9 bc 3e 29 e7 e8 3e
       0.5601793 -1.0454075 0.3686043 0.4548886

fc2.weight f4 [128, 128]
000000 99 1d 2d bd aa 5b 2e be 3c 50 1b be 9d 2c d0 bd
       -0.042264555 -0.17027155 -0.15167326 -0.10164759
000010 09 b6 a5 bd d0 2a 33 be 57 39 84 3d 08 d0 8d bd
       -0.08091361 -0.174968 0.06456249 -0.069244444
000020 6c c7 f9 bc e0 c5 72 bc 7a 3a f7 bd e1 45 b3 3d
       -0.0304906 -0.014817685 -0.120717004 0.08753563
000030 90 3b 7b bc 64 52 80 bc 8c de da bc 7b 15 8b bd
       -0.015334025 -0.015664287 -0.026717447 -0.067912064
000040 66 62 74 bd 5c 1b e8 3c 88 0d 46 bc 35 bd 10 be
       -0.059664153 0.028333358 -0.012088187 -0.14134677
000050 a4 ba 05 be b8 26 23 be 87 55 28 be 5b 7b d5 bd
       -0.13059479 -0.15932739 -0.16438876 -0.10423919
000060 54 56 ba bc fc 69 01 bd 3f a5 c5 bd 98 ef c9 bd
       -0.022746243 -0.031595215 -0.09650659 -0.09860152
000070 bc 00 d1 bc dc b2 9e bd c7 fa 99 bd d9 24 a9 bd
       -0.025513045 -0.077489585 -0.07518535 -0.08258981
000080 db f6 a7 3d 72 a1 9a bd a5 f6 eb bd 50 c8 49 bc
       0.08201381 -0.075503245 -0.11521653 -0.012315825
000090 30 da a4 bc 02 48 ec bd 0a fd 46 3d 07 79 85 bd
       -0.020123571 -0.11537172 0.04858116 -0.06517225
0000a0 7f 42 aa bd d8 fd fb bd 80 06 01 3a 66 94 2f be
       -0.083134644 -0.12304276 0.0004921928 -0.17146453
0000b0 29 53 cc bd 78 1d b7 bc c0 23 d1 3b b2 e9 4b bd
       -0.09976799 -0.022352919 0.0063824356 -0.049783416
0000c0 70 d6 f9 bb f6 ba 01 3d e4 9b d0 bc bf 02 dc bd
       -0.00762444 0.03167244 -0.02546496 -0.10742711
0000d0 49 de ad 3d 20 f9 6a bc 60 4a 22 bd b6 81 43 bd
       0.08489663 -0.014341623 -0.03962171 -0.047731124
0000e0 10 a5 bf 3c 2c c8 23 bd d6 60 ed bd b0 c9 9b bb
       0.023394138 -0.03998582 -0.115907356 -0.0047542676
0000f0 e6 82 0a bd 64 a9 1d be 81 00 d4 bd 27 cb c3 bd
       -0.03381624 -0.15396649 -0.103516586 -0.095602326
000100 b1 fd e1 bd f0 08 ce bc 88 51 47 3c 6e 67 28 be
       -0.11034716 -0.025150746 0.012165435 -0.16445705
000110 47 72 e1 bd 56 1d 12 be e2 f4 06 3d 10 2b 05 3d
       -0.11008125 -0.14269003 0.032948382 0.03251177
000120 aa 4e 15 be 12 94 06 be 8a 83 3c 3d 70 ca 2c be
       -0.14580789 -0.13142422 0.046023883 -0.16874099
000130 ca 44 95 bd 6c 4a 98 bd a3 e7 8f 3d 6a fe 15 bd
       -0.07288511 -0.0743607 0.07026603 -0.03661958
000140 3c 8a 9d bd c0 ea 74 3b a8 2f 65 bd 4d 7c 87 bd
       -0.07692382 0.0037371367 -0.05595365 -0.06615505
000150 8c d7 17 bd cd f5 08 be b1 0b f2 bd 48 cd 6e bd
       -0.037070796 -0.13375016 -0.11818636 -0.05830124
000160 a8 03 ac bc ca 2c 99 bd f0 20 41 bc 60 33 d4 bc
       -0.020997837 -0.07479246 -0.011787638 -0.025903404
000170 91 2d a8 bd 41 29 f3 bd 84 df 3d be 92 0d 13 bd
       -0.08211816 -0.11873103 -0.18542296 -0.035901614
000180 40 a6 73 bc 7c fb 51 bd 38 32 40 be 84 96 a8 bc
       -0.01487118 -0.051265225 -0.18769157 -0.020579584
000190 24 72 d8 3c 80 a7 a1 3b ea c1 2b 3d 18 3e da 3c
       0.026421614 0.0049332976 0.041932978 0.026640937
0001a0 5a be 3f 3d 4a 47 75 bd 68 88 56 bd 9c c0 96 bd
       0.046812393 -0.05988244 -0.05237618 -0.07360956
0001b0 0c a0 f6 bc e3 f1 9d bd 36 ec 4c 3d 39 2d 31 be
       -0.030105613 -0.07712152 0.050029956 -0.17302407
0001c0 a8 23 70 bd 45 12 b4 bd e8 13 8a bd 3a 4d 52 bd
       -0.058627754 -0.08792547 -0.06742078 -0.05134318
0001d0 cd 2a 84 3d ef 12 1a be e6 fe 31 be 16 e1 ff bc
       0.06453476 -0.15046285 -0.17382392 -0.031235259
0001e0 b6 f7 6c bd 9d da 8f bd 18 17 4c 3c fa 45 0b bd
       -0.057853423 -0.07024119 0.012456678 -0.03400228
0001f0 58 b9 1d be 2c ef dc bd a2 ca 27 3d 33 dd 2f be
       -0.15402734 -0.10787806 0.04096473 -0.17174225
000200 40 6e eb ba 06 a7 33 bf 73 27 e3 3c 3c 7a 0b 3e
       -0.0017961934 -0.7017673 0.027728772 0.13620847
000210 92 24 25 3d 31 c2 21 3e a6 06 68 3d 02 68 77 bd
       0.04031808 0.15796734 0.056646965 -0.060401924
000220 82 5c 79 3d 0e ca 0f bd a6 06 6b 3e 20 f2 e9 3c
       0.060879238 -0.035104804 0.22951755 0.028557837
000230 42 a5 73 3e fe ab 51 3d e3 e4 36 bd 10 b7 e1 3d
       0.2379351 0.051189415 -0.044651877 0.110212445
000240 32 a6 54 3d 2e 43 0e 3d c8 94 33 3d 64 19 93 3d
       0.05191631 0.034732036 0.04384306 0.07182577
000250 f2 fa 9b bc 91 07 31 3e d7 78 de 3d 0d d5 90 3d
       -0.019040558 0.17288043 0.10862892 0.07071886
000260 7c ed 5d be ca 22 70 3c 91 b8 af 3e 02 c0 b1 3e
       -0.21672624 0.014656732 0.343205 0.34716803
000270 8b eb a1 bd 0a 4a 38 3e 05 9a 97 3d a8 b1 bb bc
       -0.079062544 0.17996994 0.07402424 -0.022911862
000280 ea 85 6b 3d 6e 11 a7 3c b6 20 93 3e d4 87 a3 3d
       0.057500757 0.020394053 0.28735894 0.079848915
000290 03 f1 97 3d da 90 93 3e 2f 56 1f bd a1 fa 9e bd
       0.07419016 0.2882145 -0.03890055 -0.077626474
0002a0 5a 15 3b 3d 60 cd 7b 3d 06 9b 3c 3d 90 c0 00 3e
       0.04567466 0.061475158 0.04604628 0.12573457
0002b0 f4 df d1 3d 78 71 72 bd f6 b4 41 3d fa 61 04 3e
       0.10247794 -0.059190243 0.04729172 0.12928
0002c0 91 40 61 bd aa 0d 0a 3d d7 cc 94 3d a3 b0 33 bf
       -0.054993216 0.033704437 0.072656326 -0.701914
0002d0 8c 27 73 bd f0 50 5a 3a b1 0b f4 3d 1e d2 2f bf
       -0.059363887 0.00083281007 0.119162925 -0.6867999
0002e0 e8 5d f6 3c 5a c8 e4 3d 18 c5 39 bf a0 9b 3e bd
       0.030074075 0.111710265 -0.72566366 -0.046535134
0002f0 6e 3d 1f 3e fa ef 83 bd fa c8 5c 3e b0 da 40 3c
       0.15550777 -0.06442256 0.21561041 0.011770889
000300 a5 f1 04 3e c7 90 5b 3e 0d 1d 2c bd f0 52 19 3d
       0.12982805 0.21441947 -0.042019892 0.03743261
000310 6f 05 2b be d5 ab 36 3d f6 4e 3e bd 60 43 cf 3b
       -0.16701292 0.044597466 -0.04646202 0.0063251704
000320 e3 f7 04 3e 40 08 e8 3a 9c f7 98 bc bc e4 a7 3e
       0.12985186 0.0017702654 -0.018672757 0.32791698
000330 94 9a f6 bc d7 3c 24 3e e2 1d 8f bd 28 bd 06 3d
       -0.030103005 0.16038834 -0.069881216 0.032895237
000340 06 b2 95 3d 90 08 46 bc 4c 27 9d 3c 7c 1f f8 3c
       0.07309346 -0.012087002 0.019183777 0.03028845
000350 7e f5 75 3d e3 e9 7b bc e4 18 3c bf e4 fc a2 bc
       0.060048573 -0.015375587 -0.7347548 -0.019895978
000360 2c 60 9a bd 24 3d af bd 10 41 bf 3d 64 d6 80 bc
       -0.075378746 -0.085565835 0.093385816 -0.01572723
000370 ee b5 d5 bc 6a 91 a4 bb 4c 94 f6 3d e7 41 39 3e
       -0.026087727 -0.0050222175 0.12040004 0.18091546
000380 70 57 a5 bb dc 60 70 bd 26 ce cc 3e a7 a2 02 3e
       -0.0050458238 -0.058686122 0.4000103 0.1275736
000390 5f 8b 93 3d 9a 25 1f bd 2f b3 97 3d 23 5f 6a bd
       0.07204317 -0.03885422 0.074072234 -0.057219636
0003a0 bd a8 6f bd 81 e3 e7 3d 0c 87 a1 3c c3 f5 b6 3e
       -0.05851053 0.1132269 0.019717716 0.35734376
0003b0 a8 b3 1e be 09 62 be 3d 03 e7 05 bd 36 bb f9 3d
       -0.15498221 0.092960425 -0.032691013 0.12193911
0003c0 b7 a5 fc bd bb 2e 01 bd 48 46 d1 3c 0c da a5 be
       -0.12336295 -0.031538706 0.025546208 -0.3239292
0003d0 03 1c 36 bd fe 12 d6 3d 0f 07 a0 3e c0 09 70 3c
       -0.044460308 0.10452841 0.31255385 0.014650762
0003e0 16 74 c9 bd 7e 41 14 3d d0 e7 09 bc a8 d0 4c be
       -0.09836595 0.03619527 -0.008417085 -0.20001471
0003f0 df 6e b0 3d 0d 75 d8 bc 80 a4 4a 3c a5 68 31 3e
       0.08614897 -0.026423002 0.012368321 0.17325075

fc2.bias f4 [128]
000000 c4 d6 1d bd da 0f 6e 3f 54 84 36 3f c0 d4 37 3b
       -0.038534895 0.9299294 0.71295667 0.0028050393
000010 23 f2 93 3d 99 5b 0c be 37 b7 1a be 58 ff d2 bc
       0.07223918 -0.13706817 -0.15108953 -0.025756523
000020 ec 2a 99 3d 13 4e cc bd 26 19 ba bd 3c 0d c9 bc
       0.0747889 -0.09975829 -0.09086828 -0.024542443
000030 d6 45 32 be 46 da 6a 3f 22 e3 48 3f 20 02 00 bc
       -0.17409453 0.9173931 0.7847158 -0.007813007
000040 a8 15 85 bc 5c 40 1c 3f d0 5c 6c bd 3b 34 90 3d
       -0.016245678 0.61035705 -0.0577057 0.07041212
000050 c8 89 49 3d 3f b3 62 3f 54 28 9e bc fa 84 24 3d
       0.049203664 0.8855476 -0.01930634 0.04016588
000060 46 a8 75 3f d2 1f 77 3d e0 41 14 3f 15 b6 fa 3e
       0.9595989 0.06033308 0.5791302 0.48967043
000070 c5 f8 30 3f 19 a7 29 3f d9 7f 9e 3d d0 fd 9a bd
       0.6912959 0.66270596 0.07739229 -0.07567942
000080 dc 0c 18 bd 8a 72 f6 bd aa 29 af bc c3 92 9f bd
       -0.03712164 -0.12033565 -0.021382172 -0.077916645
000090 7f 42 c6 bd 62 62 6e 3f bf 0f 0b 3f 28 2b 95 bd
       -0.09680652 0.9311887 0.543209 -0.07283622
0000a0 b3 f0 8d 3d 65 77 4b 3f 07 8e 0a be 7f 20 d1 3e
       0.06930675 0.79479057 -0.13530742 0.40845105
0000b0 70 90 89 bd 60 a5 61 3f 23 ae 20 bd 18 25 1a bd
       -0.067170024 0.8814297 -0.03922857 -0.03763303
0000c0 ae 3c 4b 3d 50 f3 8b 3c da ea 29 bd 58 16 54 bd
       0.049618416 0.017083794 -0.041483738 -0.05177912
0000d0 86 fd b6 bd 34 87 0d be f4 81 b4 bc 28 88 1a 3f
       -0.089350745 -0.13821107 -0.022034623 0.6036401
0000e0 30 ba 89 bc a5 fa d9 bd de 5f 7d bd 63 93 2f 3f
       -0.016812414 -0.1064351 -0.061859004 0.6858427
0000f0 6e b5 21 3d c8 eb 72 3c 5e 94 4f bd e4 e1 dd 3c
       0.039479665 0.014826722 -0.050678603 0.027085252
000100 0d 9c d4 3e 17 7a 1c be 38 04 c7 bc a3 35 9d bd
       0.41525307 -0.15280949 -0.024294004 -0.07676246
000110 0c 5d 3c bd 7c ee 0a 3f d8 81 cf bc 70 f8 69 bc
       -0.045987174 0.5427015 -0.025330469 -0.0142804235
000120 96 53 2c bd d4 e4 b7 bc b0 ac 9a bc c5 c7 51 3f
       -0.0420719 -0.022447981 -0.018881172 0.8194545
000130 90 2c d9 bd e0 c9 e6 bb 08 81 a9 bc 38 2b d2 bd
       -0.10604203 -0.0070431083 -0.02069141 -0.102621496
000140 d6 bd 33 3e c2 85 1a 3f 00 18 ca 3b 60 ce b8 bd
       0.17552885 0.6036035 0.006167412 -0.09023738
000150 34 8e 09 3d c8 2d 06 3e 9d cf c0 3e 05 3e 93 bd
       0.03358288 0.13103402 0.37658396 -0.07189564
000160 ad 79 95 bd 10 58 f8 3b 11 05 2e be 64 f0 8c bc
       -0.072985984 0.0075788572 -0.1699412 -0.017204471
000170 b8 9d 2f 3c 50 77 69 bd a7 12 0c bd fa fb 19 3f
       0.010718755 -0.05699855 -0.034197476 0.6015011
000180 a9 ad 3d 3e 6b ef 1c 3f a0 bf c7 bc e7 ad a9 3d
       0.18523277 0.6130282 -0.024383366 0.08285122
000190 84 43 a8 bc 74 96 ad 3e 47 52 6a 3f 20 27 98 3c
       -0.020540006 0.3390385 0.91531795 0.018573344
0001a0 ec 5c c0 bd 50 52 b7 3b 7a 96 6f 3f 6a 27 62 3d
       -0.093927234 0.005594529 0.93588984 0.05521337
0001b0 c0 d2 13 3b af 98 ce bd 56 e4 27 be 8f 95 03 be
       0.0022556037 -0.10087716 -0.16395697 -0.12850021
0001c0 0c 55 3a be a1 5a 38 3f 1e a8 3f bd 60 3c 47 3c
       -0.18196505 0.7201329 -0.04679119 0.012160391
0001d0 84 08 ec bd b2 89 2c 3f 61 17 8c 3d 3e 47 03 be
       -0.11525062 0.67397606 0.06840397 -0.12820145
0001e0 57 bd 32 3f bc 0e 57 be 23 7b 3d bd dc 5d ed bc
       0.6982016 -0.21001714 -0.04626001 -0.02897542
0001f0 70 11 13 bd 7f 9c af bd 99 52 8c bd ae 36 08 3f
       -0.0359053 -0.08574771 -0.06851692 0.53208435

fc3.weight f4 [3, 128]
000000 95 54 9a 3d 88 df a3 3e 5c 72 55 3e c3 1f 88 bd
       0.07535664 0.32006478 0.20844406 -0.06646683
000010 b7 34 81 bd c8 29 bc 3d cb 24 cf bc e4 c8 da 3c
       -0.06308883 0.09187657 -0.025286099 0.02670712
000020 36 40 e1 3d 82 55 da 3d ad 84 1f 3e 38 a0 f6 bc
       0.109985754 0.106608406 0.15577956 -0.030105695
000030 71 02 38 3e 5c 30 a8 3e ee 6e 26 3e 7c d0 ac bc
       0.17969681 0.32849395 0.16253254 -0.021095507
000040 04 01 ee 3c 8f ef bb 3e fd c3 1c 3e 40 86 ec 3b
       0.029053219 0.36706206 0.15309139 0.0072181523
000050 ae eb 24 3e 5c 32 ae 3e 84 99 f9 3c b8 99 fa bc
       0.1610553 0.34022796 0.03046871 -0.030590877
000060 26 be 9b 3e c8 bd 33 bc 46 98 ac 3e 77 f7 c8 3e
       0.3041851 -0.01097054 0.33709925 0.392513
000070 de a4 7d 3e da af 75 3e 40 ef 48 3b e2 6f 24 3d
       0.24769923 0.23992863 0.0030660182 0.040145762
000080 52 f5 04 3e 70 b0 2c 3e 6b f7 d2 3d 69 d0 9b 3d
       0.12984207 0.1686418 0.103010975 0.076081105
000090 27 ef b4 3d e5 cb bb 3e 32 83 a5 3e 10 19 8a bb
       0.08834677 0.36678997 0.32326657 -0.0042144135
0000a0 a7 ce 65 bd 44 d7 a9 3e 1e 7b b7 3d 2b 84 91 3e
       -0.056105282 0.33172047 0.089590296 0.2842115
0000b0 48 61 95 3c de 7c a7 3e 2d 62 6c bd 28 90 65 3c
       0.018234864 0.32712454 -0.057710815 0.01401142
0000c0 1b 90 ad 3d 1b 2f 9b 3d 36 11 e5 3d 00 e2 8c 3d
       0.084747516 0.07577344 0.11184923 0.068790436
0000d0 da db bf 3d 28 ad 2c 3d 10 82 ee 3d d6 c6 c3 3e
       0.09368105 0.042157322 0.11645901 0.38237637
0000e0 60 8c 0b 3d 72 1d 98 3d b7 51 3b 3e fe 3f 3d bd
       0.03406942 0.07427491 0.1829289 -0.046203606
0000f0 8e db 07 bd 6d 8e 0f bd 91 ac 23 3d b4 b2 e3 bc
       -0.033168368 -0.035047937 0.039959494 -0.027795173
000100 0e c3 39 3d 83 4e f6 3d 00 3a 00 3d 42 ac d6 3d
       0.045352034 0.12026694 0.031305313 0.10482074
000110 0b 50 55 3e 37 a1 af 3e 6a 3f 6d 3d 93 14 a2 3d
       0.20831315 0.34302685 0.057921804 0.079140805
000120 de c0 28 3e 75 0f 48 bd 28 a3 f2 3d a8 0c a7 3e
       0.16479823 -0.048842866 0.11847526 0.32626843
000130 e9 a3 12 3e 32 dd 56 3d 9d 8a 5e 3d 29 93 d7 3d
       0.1432034 0.052457042 0.05433141 0.105261154
000140 3e b5 05 be 02 56 70 3e 8c 18 f0 3c bc 3e fd 3c
       -0.1305742 0.2347031 0.02930858 0.030913703
000150 80 9d d6 3b 02 c8 34 3e 9e 86 a9 3d a4 4b f2 3d
       0.006549537 0.17654422 0.08277629 0.118308336
000160 38 31 d6 3d 30 66 b2 3b 02 8b 09 3e 31 aa 38 3d
       0.104586065 0.0054443106 0.13431934 0.045084182
000170 8c 00 60 bd 8f f6 e0 3d 82 3f 00 3e 3d 90 d0 3e
       -0.05468802 0.10984527 0.12524226 0.40735045
000180 e3 a0 1c 3e b0 14 90 3e e1 db 83 bd 0c 55 ba 3c
       0.15295748 0.28140783 -0.06438423 0.022745632
000190 98 0d be bc be 8d e8 bc c2 58 87 3e 50 2c 9b bb
       -0.023199841 -0.0283879 0.26434904 -0.004735507
0001a0 6a 78 c6 3d a0 36 00 3d c3 6a ac 3e a0 0d 5e bc
       0.09690936 0.031302094 0.33675203 -0.013553053
0001b0 20 68 80 bd 4e 8e 83 3d 11 fd a8 3d f8 82 ca 3c
       -0.0626986 0.06423627 0.082513936 0.024720654
0001c0 67 26 aa 3d 94 3c 29 3e ba 18 1f 3d 1e 39 18 3e
       0.08308106 0.16527015 0.03884194 0.14865538
0001d0 f4 2c c8 3d ac 3e 8b 3e a8 57 e0 bc 22 bf 59 3d
       0.09774199 0.27196252 -0.027385548 0.053160794
0001e0 52 0d a6 3e ce 72 31 3e c1 c6 11 bd 57 73 0e bd
       0.32432038 0.17328951 -0.035589937 -0.034777965
0001f0 d0 80 32 3e 30 c0 80 bd 15 bf 95 bd 89 c9 ae 3e
       0.1743195 -0.06286657 -0.07311837 0.34138134
000200 39 78 81 3d 0c 40 80 3e ea cb 8b 3e 8c 95 5a bd
       0.06321759 0.25048864 0.27304012 -0.053365275
000210 2b 9e 84 bd 5e a5 ae 3d 9c 06 f1 bd d8 68 d9 3c
       -0.06475481 0.08527635 -0.11768839 0.026539251
000220 bd 27 63 3e ff cd f1 3d 75 d7 97 3d 9b dd 58 bd
       0.22183128 0.11806869 0.07414142 -0.052945714
000230 39 14 98 3d 45 81 a5 3e eb 7b a2 3e d6 98 8c bd
       0.07425732 0.32325187 0.31735167 -0.06865089
000240 82 23 07 3e 76 bb 9a 3e 12 b6 94 3d b6 7b 5c 3d
       0.13197139 0.30221146 0.0726129 0.053828917
000250 c4 3d d6 3d 84 58 86 3e ea d8 30 3d 00 26 91 bb
       0.104609996 0.26239407 0.043175615 -0.004429579
000260 5a 69 82 3e 34 a2 57 bd 78 96 81 3e 28 b7 63 3e
       0.25471002 -0.052644923 0.2531011 0.22237837
000270 50 e8 91 3e 9e fb 71 3e 37 3b 5c bd f6 ef 54 3d
       0.28497553 0.2363114 -0.05376741 0.051986657
000280 18 55 de 3c 7b 4d a2 3d 70 d3 c4 3d d4 cf 79 bd
       0.027140185 0.079249345 0.09610641 -0.060989216
000290 78 34 a8 3c 96 65 66 3e 57 95 8d 3e 01 cb 81 3d
       0.020532832 0.2249969 0.27653 0.06337548
0002a0 03 dd 6a bd 6e 09 95 3e 5d 88 0c 3e c9 01 6f 3e
       -0.05733968 0.29108757 0.13723893 0.23340525
0002b0 10 5d 96 bb 04 67 94 3e 4a 2b 3d 3d ea ef 0e 3d
       -0.0045887306 0.28984845 0.04618386 0.03489677
0002c0 34 83 cc 3c 60 24 d3 3b 60 e8 31 3d ec 0a 36 3e
       0.024964906 0.006443545 0.0434345 0.17777604
0002d0 cf 12 49 3e 00 8b d6 3c e0 f4 6b 3c 4e b8 74 3e
       0.19636081 0.026189327 0.0144016445 0.23898432
0002e0 a3 7c 80 3d cb 0e 85 3d d0 7e a9 3d 58 81 ba 3e
       0.062737726 0.06496962 0.08276141 0.36426806
0002f0 c8 6e 1e bd 00 d2 b1 bb 30 17 6f 3c 7a 60 a9 bd
       -0.038679868 -0.0054266453 0.014592931 -0.082703546
000300 56 3f 72 3e 98 d1 ba 3c bc 88 b7 3c 32 37 35 be
       0.23656973 0.02280502 0.022404067 -0.17696837
000310 9f 16 25 3e 64 85 6d 3e d9 67 1c 3d 40 d1 1f bb
       0.1612191 0.23195416 0.038184974 -0.0024386197
000320 b6 a8 27 3d 0b 4e a7 3d c4 bb 10 3d 7a 44 90 3e
       0.04093238 0.081691824 0.035335317 0.28177243
000330 0e 58 c5 3d d9 d9 69 bd fd e2 a4 3d a6 a3 5e 3d
       0.09635936 -0.05709252 0.08051107 0.054355286
000340 e0 43 aa 3c a0 b3 80 3e a8 61 71 3c 4c 9e 70 3d
       0.020784318 0.25137043 0.014732756 0.058744714
000350 e8 96 1f 3c 14 e6 fc 3c 92 f3 97 3e 54 d3 27 3d
       0.009740569 0.030871429 0.29678017 0.040973023
000360 2a 28 a4 3d ce c7 6e 3d f8 25 03 3e 2c 2b 31 3e
       0.08015473 0.058296017 0.12807453 0.17301625
000370 82 5a 30 3d f7 e1 f7 3d fd 81 03 3e 5a c7 67 3e
       0.043055065 0.12103646 0.12842555 0.2263464
000380 c8 05 dc 3d e8 3a 79 3e 33 a6 95 3d ee 64 7f 3d
       0.1074329 0.24338877 0.073070906 0.062352113
000390 db 78 9a 3d 0d 33 4c 3e b5 13 71 3e 5c be 81 bc
       0.075425826 0.1994135 0.23542674 -0.01583784
0003a0 17 ea bb 3d 4a 54 90 bd 94 74 6f 3e 98 dd 91 bc
       0.091755085 -0.07047327 0.23384315 -0.01780586
0003b0 20 af 7b bd 88 e7 8b 3d dc 75 59 3d b5 31 9f 3d
       -0.06144631 0.068312705 0.053090915 0.07773153
0003c0 33 2e 0e 3e 98 fc 92 3e fe 16 68 3d 8c c7 da 3d
       0.13884811 0.2870834 0.056662552 0.10682592
0003d0 34 88 96 3d 50 1e 88 3e 1a a8 97 bd df 8c 64 3d
       0.073501974 0.26585627 -0.0740511 0.055798408
0003e0 d5 50 6f 3e 68 6c 84 3d 8f 0c ac 3d f8 1e 15 bc
       0.23370679 0.06465989 0.08400833 -0.009101622
0003f0 9a ae 29 3d 43 fb 79 bd dc 81 94 bd c8 21 7f 3e
       0.04142628 -0.061030637 -0.07251331 0.2491523

fc3.bias f4 [3]
000000 5d 7b 7d 3f 6b b0 73 3f 23 fc 1d 3f
       0.9901636 0.9519107 0.61712855
