Software Configuration/models/food_monitoring_model_cycle_3.pth (torch, 73060 bytes, 6 tensors)

fc1.weight f4 [128, 4]
000000 c2 a9 bf 3e c4 96 9a 3e a8 e9 9e 3e 8a 8e 28 be
       0.37434202 0.3019315 0.3103764 -0.16460624
000010 5b b8 6d 3f eb 4c cc 3e 52 4b 82 3d 01 4d 0b 3f
       0.9285943 0.39902434 0.063620225 0.54414374
000020 a9 47 0a bf 6d 23 87 be 8a 09 90 3e bf 1b 15 bf
       -0.54015595 -0.26394215 0.28132278 -0.5824546
000030 e2 5d 36 3f 00 ed 17 3f fd 85 84 3e 4f 8c 4c 3f
       0.71237004 0.5934601 0.25883475 0.79901594
000040 77 55 08 be 02 e9 99 3e 69 3a b3 3e 9e 3c b7 3e
       -0.13313852 0.30060583 0.350055 0.35788435
000050 57 11 c5 be ec ce 2a bf c0 0c 99 3d ab 4a 4e 3e
       -0.38489792 -0.6672199 0.07473135 0.20145671
000060 ad a1 75 3f 1f 84 51 3f 6a de 89 bd 7a 2f 91 3e
       0.9594982 0.81842226 -0.06731875 0.28356534
000070 b0 d9 a6 3d 81 c2 f8 3e 34 f5 8d 3e dc b7 d9 3e
       0.08146989 0.48585895 0.27726138 0.42523086
000080 ff a2 68 3e af 0e 59 3f 02 4a 17 3f 04 e4 d2 3e
       0.22718428 0.8478803 0.590973 0.41189587
000090 a5 8f bf bd 9a 4e de be a6 08 63 3e 67 10 1f 3f
       -0.0935357 -0.43419343 0.22171268 0.62134403
0000a0 06 93 3e bf ba 56 25 bf fe 04 01 3f d1 4e 12 bf
       -0.7444309 -0.6458546 0.5039824 -0.57151514
0000b0 36 04 0e 3f e3 45 54 3f 2d 31 47 3e 03 17 6d 3f
       0.55475175 0.8291914 0.19452353 0.9261324
0000c0 5a 0e 87 be 5c 3f 56 3e 06 33 af be 6c a9 48 be
       -0.26378137 0.20922607 -0.34218615 -0.1959588
0000d0 e7 b1 ad 3e 39 11 28 3e a5 31 18 3f 0f 9b 91 3e
       0.3392479 0.1641282 0.5945075 0.28438613
0000e0 b0 15 e0 bd e9 6c a6 3d 51 66 24 be 2e 3c 94 be
       -0.109416366 0.08126242 -0.16054656 -0.28952163
0000f0 67 dc 43 bd 60 1c ef be f6 45 76 3e d7 8e b6 be
       -0.047817614 -0.46701336 0.24050125 -0.35655853
000100 ec 98 79 3e 10 e6 79 3f eb c2 28 3e b0 29 7d bc
       0.24374741 0.9761667 0.16480605 -0.015451834
000110 7a 49 81 be bc ad f2 3e 50 70 b4 be f6 ac b4 3e
       -0.2525137 0.47398174 -0.35241938 0.3528821
000120 70 9b 63 be 48 e5 09 be fc 1b 7e be c0 df 47 bc
       -0.22227263 -0.1346637 -0.24815363 -0.012199342
000130 a9 2b 3a 3e 10 3c f6 3e 8a 30 be 3e e3 8b 58 3e
       0.18180718 0.480927 0.37146407 0.21147113
000140 95 1e 69 be c1 80 e5 be 54 97 2a 3d 3c 9a a0 3e
       -0.22765572 -0.44824794 0.041648224 0.3136767
000150 cc 5e 14 be be ee c4 be d0 f1 7c bd 0c 7c 6c 3e
       -0.14489287 -0.38463396 -0.061754048 0.23094195
000160 00 b8 44 bd 74 66 8f be 82 6a 9d be 54 6a 6d 3e
       -0.04802704 -0.28007853 -0.30745322 0.23185092
000170 53 74 64 3f c2 27 35 3f cf 45 e2 3e 6d ff 06 3f
       0.89239997 0.7076379 0.44193885 0.527335
000180 01 6a 92 be 52 81 a3 be f1 d1 53 3e 80 6a f5 3d
       -0.285965 -0.319346 0.20685555 0.11983204
000190 06 c7 28 3d 80 62 1b 3b bc e3 45 be 0b 66 aa 3e
       0.04120543 0.0023709834 -0.19325155 0.33280978
0001a0 bf 7d 79 3d 48 be 3c bf e4 16 7c 3d 17 fe 09 bf
       0.060910936 -0.73727846 0.061545268 -0.53903335
0001b0 c8 10 fd 3e 29 55 0d 3f 48 1e 1a 3f 2f b4 c8 3e
       0.49426866 0.5520807 0.60202456 0.3919997
0001c0 b8 c3 b5 bd 38 e0 c3 3e 06 e6 e5 be d0 75 a3 3d
       -0.08875221 0.38257003 -0.44902056 0.07981455
0001d0 80 e2 d7 3c a8 7a 06 be 58 5b fd bd 0c 16 fe 3e
       0.02635312 -0.13132727 -0.12370938 0.49626195
0001e0 8c 6e 58 3e ca 0f c0 3e 7e b8 fc be f6 31 cc 3e
       0.2113592 0.37512046 -0.49359506 0.39881867
0001f0 40 e7 8b bc 30 c2 b1 3d 5e 71 d1 be c4 a4 09 3e
       -0.017078042 0.086796165 -0.40906805 0.1344176
000200 ac ef 14 be c0 22 dc 3e 7c 9d d3 be 98 57 a2 be
       -0.14544553 0.42995262 -0.4133109 -0.31707454
000210 8a c1 9e be 0c c4 c2 be e6 34 2e bd 9e bc 41 3e
       -0.31007034 -0.38040197 -0.042530917 0.18919608
000220 24 a4 a6 be 4c 1a 51 3e 78 28 b4 bd d4 46 61 be
       -0.32547104 0.20420188 -0.08796781 -0.21999675
000230 32 b8 9a be 80 f8 c0 bb 94 dd 56 be 84 14 ab be
       -0.30218655 -0.0058889985 -0.20982963 -0.3341409
000240 2c a5 fd 3e 10 64 3a 3e 96 b3 8c be ac 15 4d 3e
       0.4954008 0.18202233 -0.27480763 0.20027798
000250 73 9e 62 3e 6b 64 61 3f 15 ea 70 3e ea 2a 23 3f
       0.22130756 0.8804385 0.23526795 0.63737357
000260 26 f4 1d be 4e e4 b1 be f0 e3 a5 3c 9e 60 03 bf
       -0.15425166 -0.34744495 0.02025029 -0.513193
000270 6b ca f2 3d 8d b1 b5 3e ae 79 a1 be 16 9e 0b 3d
       0.118550144 0.35487023 -0.31538147 0.03408631
000280 80 ed ec 3e 40 85 98 be b8 e2 d9 be d0 a2 39 bd
       0.46274948 -0.29789162 -0.42555785 -0.045321286
000290 7d cc 9d 3d a9 e8 0f 3f db 02 1c 3f ac 34 ff 3e
       0.07705019 0.56214386 0.6094186 0.49844873
0002a0 8e cf 4a 3f 3f 9c b9 3e 3d 13 ae 3e 7e b2 0b 3f
       0.79222953 0.3625202 0.33999053 0.5456923
0002b0 c9 13 d2 3e 40 5b d8 3e f8 73 09 3f d0 cb 58 3f
       0.4103072 0.42257118 0.5369258 0.84685993
0002c0 54 b1 df be 26 2b fa be 9c 6d 58 be 40 76 46 3e
       -0.43689978 -0.48861045 -0.21135563 0.19381046
0002d0 09 5f c2 3e 0c 45 f2 3e db 3a aa 3e 78 aa fd 3d
       0.3796313 0.47318304 0.33248028 0.1238603
0002e0 0b 9c 8f 3e 42 28 b9 3e c4 2c bc 3e 77 b3 f2 3e
       0.2804874 0.36163527 0.36752903 0.47402546
0002f0 c8 48 07 3f be 44 f8 3e 7e 0c e4 3e b9 ce fe 3e
       0.5284543 0.48489946 0.4454078 0.49767092
000300 ca 41 b1 be 88 2c ef be ed a0 99 3e 50 e4 3d bd
       -0.34620506 -0.46713662 0.3000559 -0.046360314
000310 80 4b e9 3d 14 85 4e 3e e8 d7 da be 14 10 7c be
       0.113913536 0.20167953 -0.42742848 -0.24615508
000320 7c 24 7b be 72 ba a8 3e 32 09 ce be 02 c6 9a be
       -0.24525636 0.32954746 -0.4024139 -0.30229193
000330 11 a4 0a 3f c5 93 e6 3e 0b 22 18 3f c3 fd 0e 3e
       0.54156595 0.45034614 0.59426945 0.1396399
000340 41 ac 12 3f ec da 13 3f bc 92 ae 3d 68 69 7b 3e
       0.5729409 0.57755923 0.08524081 0.24551928
000350 94 ba f4 be 00 b6 43 3c e6 08 e8 be 58 0f a5 be
       -0.47798598 0.011945248 -0.4531929 -0.3223827
000360 0e ac 85 be aa 61 f5 be a0 47 b0 3c d8 b7 e2 be
       -0.2610783 -0.47926074 0.021518528 -0.44280887
000370 3c 23 05 bf fb af e8 be 00 f0 68 3d 3d 93 86 be
       -0.5200689 -0.45446762 0.056869507 -0.2628421
000380 18 d7 91 be a4 5e 11 be f8 b7 5f be 52 4d 93 be
       -0.28484416 -0.14196259 -0.21847522 -0.28769928
000390 f4 b4 6b be eb 3b 41 bf 80 3e d9 3e 73 d0 29 bf
       -0.23018247 -0.7548205 0.42430496 -0.66333693
0003a0 60 c4 8e 3d ea eb e7 be c0 04 cc bc 44 05 9e 3e
       0.06971049 -0.45297176 -0.024904609 0.30863392
0003b0 a0 4b 95 bd fc 9f fe be fc b1 f5 be 14 0f 6c be
       -0.07289815 -0.49731433 -0.47987354 -0.23052627
0003c0 60 c8 32 3d da 81 8e 3e 46 ea 91 be 5c 9d f2 be
       0.043648124 0.27833444 -0.2849905 -0.4738568
0003d0 a8 75 5a 3f 5b b0 b5 3e 26 c4 8e 3e f3 4e f8 3d
       0.8533578 0.3548611 0.27884024 0.12124433
0003e0 90 5e d3 be d4 3b fe be e0 27 a0 be 8c f0 0b be
       -0.41283083 -0.4965502 -0.31280422 -0.1366598
0003f0 b8 64 0e 3e ac a9 f1 3e 14 ac b1 be a8 5e c1 3e
       0.13905609 0.47199762 -0.34701598 0.3776753

fc1.bias f4 [128]
000000 08 f4 e7 3d 6e d9 5e bd 9e 54 0b bf 59 3d 8d bd
       0.11325842 -0.054406576 -0.5442599 -0.06896467
000010 7a 79 f0 be 3e 83 73 3e f8 84 65 3f f8 08 25 bb
       -0.4696768 0.23780534 0.8965602 -0.0025182348
000020 90 59 19 3f 13 4b fe 3e ee ab 6f 3d 43 06 c9 3e
       0.59902287 0.49666652 0.058513574 0.3926259
000030 64 66 24 3e 5d 64 02 be a8 89 25 3e 45 1b 88 bf
       0.16054684 -0.12733598 0.16165793 -1.0633322
000040 2a c6 43 3f 54 5d 99 be 52 a8 e1 be 03 da c0 bd
       0.7647425 -0.29954016 -0.4407373 -0.094165824
000050 e8 75 ac 3e c8 a4 11 be d0 27 67 3d 11 2f 3a 3f
       0.33683705 -0.14223015 0.056434453 0.7272807
000060 79 34 90 3d c6 80 ef be 51 e1 e6 be 8b 01 e3 3e
       0.07041258 -0.46777934 -0.45093778 0.44337115
000070 e0 0b 43 bd 2e 81 a3 be 54 f0 1d 3e 7c 40 b0 3e
       -0.047618747 -0.31934494 0.15423709 0.34424198
000080 bc 7a e7 3e a2 c1 3a 3e cc 8b fb be 4e 02 fa be
       0.45210826 0.18237928 -0.49130094 -0.48829883
000090 80 2a 0a bd e6 46 2c 3d 1c 33 af be af 54 17 bf
       -0.033731937 0.0420598 -0.3421868 -0.5911359
0000a0 80 99 a8 bc e2 91 0e 3f 2e ee 4d be 61 15 1b 3f
       -0.020581007 0.5569135 -0.2011039 0.60579497
0000b0 48 ef f0 3e 13 dd a9 3e 85 99 5c 3e e9 98 b7 be
       0.47057557 0.3317648 0.21542938 -0.3585885
0000c0 84 ef 3d bf 04 f8 9f be 60 df 98 3d 87 c8 40 3d
       -0.74193597 -0.31243908 0.074644804 0.047066238
0000d0 53 fe dc 3e b2 8a b8 be ec 39 45 be b9 af 0d bf
       0.43162784 -0.36043316 -0.19260377 -0.55346256
0000e0 f4 63 c5 3e 73 f2 f1 be ac 88 10 be 3a 57 ec be
       0.3855282 -0.47255287 -0.14114636 -0.461603
0000f0 52 0f c1 3e d2 08 e9 3e f0 26 e3 bd c0 ab 28 3e
       0.37707 0.45514542 -0.11091411 0.16471767
000100 e0 95 43 be 5f 22 1b 3f f8 d3 50 3e 65 c7 08 3f
       -0.19100142 0.6059932 0.2039336 0.5342925
000110 a3 1e 2a 3f 30 e0 a4 be 4e b0 56 3e cc f3 ce 3e
       0.66453 -0.3220229 0.20965692 0.40420377
000120 f0 67 26 3d f2 f7 af 3e a6 9d dd bd ad 86 4c 3f
       0.040626466 0.34368855 -0.10821085 0.79893
000130 21 96 f0 3e 18 9f 20 3e a8 67 f2 be 69 24 4d bf
       0.4698954 0.1568569 -0.47344708 -0.8013368
000140 fc ec 3c 3f a8 27 a6 bd a2 f3 9d 3e 46 ab d1 be
       0.7379911 -0.081130326 0.3084994 -0.40950984
000150 35 85 18 3f 62 28 b4 be c0 7a 9e 3c 3f 92 dd be
       0.5957826 -0.3518706 0.019345641 -0.4327564
000160 88 04 80 3d 70 83 57 3d 49 fd a5 be a8 3d aa 3e
       0.06250864 0.052615583 -0.32419804 0.33250165
000170 d5 67 89 be 13 98 49 3e a2 fa 90 be fb 5a da be
       -0.2683703 0.19686918 -0.28316218 -0.42647538
000180 28 de 68 3e 6c c6 ca be c2 fb 8e bf 80 ed e2 3c
       0.22740996 -0.3960451 -1.117058 0.02770114
000190 00 3a d8 be 08 e0 25 3e 14 67 02 3e c0 cb a4 bd
       -0.4223175 0.16198742 0.12734634 -0.08046675
0001a0 78 0d 8e 3d d5 31 db 3e 00 7a ba bc 9c aa f3 be
       0.06936163 0.42811456 -0.022763252 -0.47591102
0001b0 df 82 ef be 95 b9 38 be 10 b9 c2 bd e9 97 1c 3f
       -0.46779534 -0.18039544 -0.09507954 0.61169297
0001c0 7c f2 6b bf 60 95 aa 3e 50 e6 b5 3e 50 11 b5 be
       -0.92166877 0.3331709 0.35527277 -0.3536477
0001d0 4e d1 d3 be 72 3d 47 bc ea 5d 56 bf f5 fb 1e 3f
       -0.41370624 -0.012160646 -0.8373705 0.62103206
0001e0 91 1c fe 3e 99 0d 90 bd 30 80 52 be 12 e2 cb 3e
       0.4963117 -0.070338435 -0.20556712 0.39820915
0001f0 cd 45 9d bf 6a bb dd bd b8 cd 88 3e 23 af 35 3d
       -1.2286927 -0.10826762 0.2671945 0.044356477

fc2.weight f4 [128, 128]
000000 fb 48 9e 3d 4e 19 ac 3e 2d df 85 bf 35 5d af 3e
       0.07728764 0.33613056 -1.0458733 0.342508
000010 1b da 5a 3d 64 50 6d 3d 78 2a bc 3e dd 51 14 3e
       0.053430658 0.057937995 0.3675115 0.14484353
000020 9a e0 62 3e f7 b4 ed be c3 10 0d c0 2b 57 97 3e
       0.22155991 -0.46427128 -2.204148 0.2955869
000030 b1 78 2b bd 27 fb 55 3e eb 82 80 3d 66 40 9a bf
       -0.041863147 0.20896588 0.062749706 -1.2050903
000040 6c cf 4b 3e c2 28 66 3d 55 ca 91 bd e2 5b 89 3e
       0.19903344 0.056191213 -0.0711867 0.26827914
000050 a1 84 66 3d 2b 3d 8a 3d 0a 8a 45 3d 77 c4 96 3e
       0.05627883 0.06749948 0.048227347 0.29446766
000060 5d fb a8 be d8 7e 8e 3c 3c 60 06 be b5 99 68 3e
       -0.33004275 0.017394468 -0.13122648 0.22714885
000070 58 ca f3 3c 19 35 8a 3d 7c 64 84 bd 72 65 83 bd
       0.029759571 0.06748409 -0.064644784 -0.064158335
000080 9f 82 95 3d a9 2e 3e 3d d0 5b e0 3c 32 65 6d 3d
       0.073003046 0.046431217 0.02738753 0.057957835
000090 39 3b 3f bd 39 e2 70 3e 0c f1 7c 3b 32 69 79 3d
       -0.04668734 0.23523797 0.0038595824 0.060891338
0000a0 c1 77 92 3d 1f 82 cd 3d 5a 90 2d 3e 4d af 4d 3e
       0.071517475 0.10034584 0.16949597 0.20086403
0000b0 8a c8 41 3d fc 17 94 3e 7a a5 68 3e 95 80 22 3e
       0.04731039 0.2892455 0.22719374 0.15869363
0000c0 df 3e e3 be d6 de 14 3d 78 77 c7 bc 0b 42 78 3e
       -0.44383904 0.036345325 -0.02434896 0.24243943
0000d0 9f f1 70 3e 44 17 ac 3c db da 9b 3d 51 17 86 3d
       0.23529671 0.021007188 0.07610103 0.06547416
0000e0 6b 69 23 bd 79 7e a9 bf 1c fb 6c bd 00 b8 ba 39
       -0.039895456 -1.3241721 -0.057856664 0.00035613775
0000f0 d0 f4 82 3b 23 25 82 3e 14 e5 86 3c 0e 8d ac bd
       0.003996469 0.25418958 0.016466655 -0.084253415
000100 8e 2e 42 bd ac 6a 3f 3e 80 c8 bb 3b d0 4e 0d 3d
       -0.04740768 0.18693036 0.0057306886 0.03449899
000110 6c d8 a7 3e 36 47 99 bd c0 2a 84 3e 0d 47 90 3d
       0.32782304 -0.074842855 0.25813866 0.07044802
000120 b2 87 73 3d e6 a2 75 3d 16 48 43 3d 2e 87 25 3e
       0.05945558 0.059969805 0.04767617 0.16164848
000130 92 77 23 3e c8 0f a7 3c 56 50 54 3d ef 8e 6c be
       0.15963581 0.020393267 0.051834427 -0.231014
000140 4d ea 72 3e 48 05 43 3c 70 88 83 bb 1e d0 6e 3d
       0.23722191 0.011903115 -0.0040140674 0.058303945
000150 14 ed 1e 3e 02 77 39 3d b2 a7 4b 3d 38 fd 04 bb
       0.15520126 0.04527951 0.049720474 -0.0020292532
000160 2c ee f2 bc 29 bf 63 3d 76 38 d2 bf 83 d8 a7 3d
       -0.029654585 0.055602226 -1.642348 0.08195593
000170 4e b5 95 bd 7d 06 aa 3e 53 61 a7 3d 92 7f ce be
       -0.07309972 0.33208075 0.0817286 -0.40331703
000180 c6 09 21 3e d4 71 80 bc 18 27 81 bf 80 33 00 bf
       0.15726385 -0.015679277 -1.0090055 -0.5007858
000190 44 d1 6a bd 67 9b 8e bd 30 30 67 bc cb 2f 98 bd
       -0.057328478 -0.069632344 -0.01411061 -0.07430991
0001a0 1b 35 60 bd 00 f9 ad 3e 84 66 fe 3c 30 4d be bc
       -0.054738145 0.33979034 0.031054743 -0.023230165
0001b0 93 39 93 3d d9 ba 65 3e 78 98 7b bd d0 3f 9f 3e
       0.07188716 0.22434558 -0.061424702 0.31103373
0001c0 ba 62 5e bf da 41 b3 3e 05 24 6f 3e d6 2d 70 3d
       -0.86869395 0.35011178 0.23353584 0.058637463
0001d0 70 46 ed bc ca 2c e7 3e a3 50 ab bf 5e 34 3b 3e
       -0.028964251 0.4515136 -1.3383983 0.18281695
0001e0 2f 75 b1 3e 1b 9c 90 3d fe 65 56 bd 20 bf 05 bd
       0.34659716 0.07061025 -0.05234336 -0.032652974
0001f0 e6 ff dd be 1f 72 45 3e c6 cf a0 bd 51 79 9b bd
       -0.43359298 0.19281815 -0.0785213 -0.07591499
000200 2c 80 39 be 50 aa 20 bd a7 cc f2 bd 00 d8 04 be
       -0.181153 -0.039224923 -0.118554406 -0.12973022
000210 58 d8 91 bc 1b 9e 7a bd 52 85 84 bd c9 9b f6 bd
       -0.017803356 -0.061185937 -0.06470741 -0.120414324
000220 f6 ca 33 be 40 3c 19 bc 70 82 d5 bd 82 31 87 bd
       -0.17557892 -0.009352744 -0.104252696 -0.0660124
000230 20 fa ca 3b 0a 92 16 be 5c 34 37 bd 95 a3 91 bd
       0.006194368 -0.14704147 -0.04472767 -0.07111279
000240 ff b7 28 be 40 f0 b7 bb 34 5a ac bc ae d9 02 be
       -0.16476439 -0.005613357 -0.021039106 -0.1277835
000250 ec 98 0a bd 43 20 0f bd bb 38 95 bd 50 5b 3d bd
       -0.033837244 -0.034942877 -0.07286211 -0.04622966
000260 13 d0 f6 bd 4d 9d 99 3d 38 5f 27 be 38 e6 50 bd
       -0.12051406 0.07500706 -0.16344917 -0.051000804
000270 b5 68 84 3d e0 90 03 bb 50 b3 14 3c fb 41 b0 bd
       0.06465284 -0.0020075366 0.009075955 -0.08606335
000280 50 81 a4 3b 60 85 cb 3b 8e 53 78 3d 5b 17 ab 3d
       0.005020298 0.006210968 0.06062656 0.08354064
000290 a9 88 97 bd 7c f7 1a bd 28 8e 78 bc fc a9 a5 bd
       -0.07399113 -0.037833676 -0.015170611 -0.080890626
0002a0 1b fa 8b 3d b0 1b 39 bd 0c cf 22 bd c4 ec 5a bd
       0.06834813 -0.04519242 -0.039748237 -0.053448454
0002b0 69 40 b2 3d 9b 3b 85 bd 29 44 24 be b8 89 09 be
       0.087036915 -0.065055095 -0.16041626 -0.13431442
0002c0 55 98 b2 bd d2 c4 21 3d a0 d5 e8 bb e0 52 10 be
       -0.08720461 0.039494343 -0.007105544 -0.14094114
0002d0 95 a1 c0 bd b0 9c 33 bd 30 4e a0 bb 48 3f 18 bd
       -0.09405819 -0.0438506 -0.004892133 -0.037169725
0002e0 09 3b 81 3d be 60 28 be 4c 9f ae 3c 2d 3d b4 3d
       0.06310088 -0.16443154 0.021316193 0.08800731
0002f0 f0 e5 d8 bb 19 0d ba bd 07 81 b3 3d d7 f0 0c bd
       -0.0066192076 -0.090845294 0.087648444 -0.03440937
000300 06 ad 3a 3d 08 df 39 be b3 2a 14 bd 8e 56 36 bd
       0.045575164 -0.18151486 -0.036173534 -0.04451614
000310 31 6f fb bd 10 3e 08 3d 39 6b dc bd df bc ac 3d
       -0.122770675 0.033262312 -0.107626386 0.08434462
000320 6a 39 50 3d 31 c9 20 bd 58 3c 6e bd 43 9d f4 bd
       0.050836004 -0.03925437 -0.058163017 -0.11944058
000330 2d b2 36 be f0 02 c5 bb b5 bf 8d 3d 66 cc 37 be
       -0.17841406 -0.006012313 0.06921331 -0.17949066
000340 55 92 38 be 17 57 96 3d a2 10 e0 bc 2d db 8d bd
       -0.18024571 0.0734083 -0.027351681 -0.0692657
000350 a4 09 32 bd e0 46 51 3b aa a0 82 bd 52 23 2a bd
       -0.043466225 0.0031933114 -0.063783005 -0.04153759
000360 a2 73 05 3d 82 e5 10 be 6a 81 35 be 60 c6 a3 bc
       0.03258098 -0.1415005 -0.17725149 -0.019992054
000370 b4 15 c0 bc 75 19 92 bd 8e 0f 87 bd 8e 45 8a bd
       -0.023447849 -0.07133762 -0.06594764 -0.06751548
000380 2b 86 0b be 98 73 cd bc 72 0a 34 be f8 58 af bd
       -0.136254 -0.025079533 -0.1758211 -0.08561891
000390 fb 40 9a 3d 3c 1b a5 3c 05 ef a3 3d 28 e3 a2 bd
       0.07531925 0.020154588 0.08004574 -0.07953483
0003a0 a0 d4 43 3b 68 24 fb bc 54 3b da 3c fa 46 02 3d
       0.0029881373 -0.030657008 0.026639618 0.03180597
0003b0 be c9 61 bd 9e 92 e2 bd d5 99 83 3d ad 12 23 be
       -0.055124037 -0.11063121 0.064258255 -0.15925093
0003c0 00 50 07 be e7 a3 14 be e8 73 06 bd bc ad d5 3c
       -0.13214111 -0.14515649 -0.03282538 0.02608382
0003d0 7a 73 f4 bc 2b 89 a5 bd 58 8c 93 bc 56 11 0e be
       -0.02984022 -0.08082803 -0.018011257 -0.138738
0003e0 a0 cd a1 bc 26 b5 83 bd 6f 27 a4 bd 6e 66 45 3d
       -0.01975137 -0.06431036 -0.08015334 0.048193388
0003f0 8d 42 0c be d0 bc 15 be 0c 25 9a bd 0c cf 06 bd
       -0.13697262 -0.14622808 -0.075265974 -0.0329123

fc2.bias f4 [128]
000000 0b 28 1c 3f ca 0c 60 bd 00 2c ed 3a 93 ee 13 3f
       0.609986 -0.054699697 0.0018094778 0.5778591
000010 10 7c 04 be 0a 43 03 be 36 61 52 bd 50 3c 34 be
       -0.12937951 -0.12818542 -0.05136224 -0.17601132
000020 7e c8 cf 3e f2 3d 38 be 1c 1a 40 3c 6a 50 12 3f
       0.4058265 -0.1799238 0.011724975 0.5715395
000030 b6 cf fd bc 1c 39 e7 bd 30 e7 fa bb f0 81 f2 3b
       -0.030982833 -0.112901896 -0.007656954 0.0074007437
000040 35 6e 7d bd 00 f4 b4 3c 83 b3 37 3f 60 29 5d bb
       -0.06187268 0.022089005 0.7175829 -0.0033746585
000050 9e d9 01 3e 5c 5f aa 3d e8 bf 45 bd da da d8 bd
       0.1268067 0.083189696 -0.04827872 -0.105886176
000060 12 55 99 bd 80 8e 8f bd 93 5e a3 3d 8c 9d cc bc
       -0.07486929 -0.070096016 0.07977023 -0.024977468
000070 39 08 0a be a4 39 0d bd ca 43 02 3d 32 21 ea bc
       -0.13479699 -0.0344788 0.03180293 -0.028580282
000080 01 32 05 3f 89 a9 a8 3d 88 62 2f bd 6e 43 ed 3e
       0.52029425 0.08235461 -0.042818576 0.46340507
000090 7e 06 14 bd ff 54 96 bd e0 a9 a2 bb 60 78 95 3b
       -0.036139004 -0.073404305 -0.0049640983 0.004561469
0000a0 57 8c 20 be ff 0a 23 3c 52 be f0 bc 14 6c 60 bd
       -0.15678535 0.009951352 -0.029387627 -0.05479057
0000b0 88 1e 43 bd f8 64 ce bd 08 24 32 bd 27 5b a3 3d
       -0.04763654 -0.10077852 -0.043491393 0.0797637
0000c0 e4 00 ec 3e d8 87 88 3c d0 dd 0c be c2 11 22 be
       0.4609443 0.016666338 -0.1375649 -0.15827087
0000d0 d8 5b f6 3c 94 1e c1 3c 72 96 19 be cc b4 0c 3f
       0.030073091 0.023574151 -0.14998797 0.54963374
0000e0 a9 9c a1 bd 5a 32 75 bd eb ef 9d 3e c6 98 a2 bd
       -0.07891209 -0.059862472 0.30847105 -0.079392955
0000f0 30 1e b7 bc 47 16 0e 3f 62 2a 0d bd b8 18 d1 bc
       -0.022353262 0.5550274 -0.034464248 -0.025524482
000100 f8 aa 58 bc 35 9d 30 3f bb df 97 3d fd c8 cb bd
       -0.013224356 0.6898988 0.0741572 -0.09950445
000110 48 02 79 3c ad 57 e0 bd 64 d8 02 be 1a 40 4e 3d
       0.015198298 -0.10954223 -0.12777859 0.0503541
000120 86 66 05 be 77 28 f3 bd 64 5d af bd d0 ec 24 3f
       -0.13027391 -0.118729524 -0.08562735 0.6442385
000130 ec 80 2f bd 30 5a 50 bc c4 cd 15 be d7 0d 3f 3f
       -0.04284756 -0.012716815 -0.14629275 0.7463049
000140 1f 12 07 be eb a4 e7 bd 62 23 51 3d 80 0c 6f ba
       -0.13190506 -0.113107525 0.051059134 -0.0009118989
000150 68 b9 29 3c 0c d4 aa bd ed 39 ad 3d 0f c4 b8 bd
       0.010359146 -0.08341226 0.08458314 -0.0902177
000160 99 99 c4 3e f6 b9 5f bc 88 41 45 3f 48 a2 16 3c
       0.38398436 -0.013655176 0.7705312 0.009193964
000170 40 64 64 bd b7 fd 1d be ea c3 33 be 4f 87 a5 bd
       -0.05575967 -0.15428816 -0.17555204 -0.08082449
000180 cb 34 c1 bd f6 52 fa 3e dd 7a 8d 3d 37 b2 34 3f
       -0.094338976 0.4889142 0.069082 0.70584434
000190 28 c8 ef 3e 77 34 55 3f c0 b7 8f 3d b1 ad 40 bd
       0.46832395 0.8328318 0.070174694 -0.047040645
0001a0 dc 7e 80 bd f3 a2 fd bd 33 87 84 bd a6 15 49 3f
       -0.062741965 -0.12384596 -0.064711 0.7854866
0001b0 a5 4f fd 3e 36 32 e7 bd f7 01 68 bd 28 a1 0e bd
       0.49474826 -0.11288874 -0.0566425 -0.03482166
0001c0 7e 74 22 bd a7 a7 b9 bd a8 dd 6f bc 99 41 40 3f
       -0.039661877 -0.0906518 -0.014640249 0.75100094
0001d0 c7 79 b2 bd 84 a7 e2 3e 90 15 f6 bb 58 29 c6 bd
       -0.087146334 0.4426843 -0.0075098947 -0.096758544
0001e0 2c 63 65 bd 02 28 38 3d 8e 28 54 bd 1e 7c 87 bd
       -0.05600278 0.04496003 -0.05179649 -0.0661547
0001f0 1a 48 9a bd f2 ad 45 3d 5a 88 ab 3d fd 49 37 3f
       -0.075332835 0.04826159 0.08375616 0.7159727

fc3.weight f4 [3, 128]
000000 06 ce 25 3e fc e4 df 3c 60 80 c4 bc b4 7c 1e 3e
       0.16191873 0.027330868 -0.023986995 0.15477258
000010 e3 87 13 3e 8c db 10 3e 78 bf f7 3c 8a a6 32 3e
       0.14407305 0.1414625 0.030242667 0.17446342
000020 62 f0 34 3e c0 cc 95 3d 10 4c d2 3d 88 d4 94 3e
       0.17669824 0.073144436 0.10268414 0.29068398
000030 56 b8 75 3d 43 a3 cb 3d b1 61 b0 3d 0b db 9a 3d
       0.05999025 0.09943249 0.08612383 0.075613104
000040 44 2b 09 bd 35 d1 90 3d 74 30 97 3e ea 27 4a 3d
       -0.033488527 0.07071153 0.29529154 0.04935447
000050 d0 74 61 3e 04 f7 56 3c 96 33 2f 3d a7 af 83 3d
       0.22017217 0.013120417 0.042773806 0.064299874
000060 58 a7 b9 bc 57 cf c8 3d 84 68 fc 3c 99 16 e1 3d
       -0.022662804 0.09805172 0.030811556 0.10990638
000070 54 b9 dd 3c 87 40 87 3d 83 20 35 bd f8 1d f3 3c
       0.02706591 0.066041045 -0.04422046 0.029677376
000080 10 c0 3d 3e 88 66 a7 bc 54 95 d2 3c da 89 83 3e
       0.18530297 -0.020434633 0.02570597 0.2569111
000090 40 58 9d bb 03 bd b4 3d 78 ad c0 3c 59 4b ae bd
       -0.00480178 0.088251136 0.023520216 -0.08510465
0000a0 7c 61 ab 3c 04 4d d8 3c fe d5 24 3d bb 00 39 3e
       0.020920508 0.026403911 0.04024314 0.18066685
0000b0 1a 9d c7 3d 73 53 07 3e da e2 2d 3d 8a 2e b2 bd
       0.097467616 0.13215427 0.04245267 -0.08700283
0000c0 8d 55 4a 3e 69 3f 9b 3d c6 7d a2 3d 4a 31 14 3e
       0.19759198 0.07580454 0.07934146 0.14471927
0000d0 18 20 91 3c ea 02 1e bd b4 8b 03 3e 34 af 48 3e
       0.017715499 -0.038576998 0.12846261 0.19598085
0000e0 5b d3 0f 3e e0 a1 78 bd be 87 7f 3e bf 5e 66 3d
       0.1404547 -0.06070125 0.24954125 0.0562427
0000f0 93 a4 2a 3d aa b2 7a 3e 2d e8 e1 3d 72 e6 1a 3d
       0.041660856 0.24482217 0.11030612 0.037817426
000100 1a 7d dd bc 35 2f 48 3e 19 4e 18 bd 1a 6f 22 3e
       -0.027037192 0.19549258 -0.037183855 0.15862694
000110 5c d5 13 3d 4c 36 ee 3c 4c db 63 3d 94 0c ca 3c
       0.036092147 0.029078625 0.05562906 0.0246642
000120 ac 19 d0 3d de f1 24 3d 76 63 2a bd 62 ae 8c 3e
       0.101611465 0.040269725 -0.04159876 0.27476794
000130 e2 df 6d bd bc 3c 08 3e b8 52 17 3d 82 00 82 3e
       -0.05807484 0.13304418 0.03694412 0.25391012
000140 9c e0 f2 3d 88 25 08 3d da 66 72 3d 38 6c ac 3d
       0.11859247 0.033238918 0.05918012 0.084190786
000150 16 b7 28 3e 10 e2 09 3c 80 87 15 bc fc 94 19 3e
       0.16476092 0.008415714 -0.009126544 0.1499824
000160 66 bc 05 3e f9 fd 5f 3e 10 2a 1a 3e 42 96 78 3d
       0.1306015 0.21874227 0.15055108 0.060690172
000170 ec 18 6e bd 26 80 f0 3d 37 ae fb 3d 55 83 3b be
       -0.058129236 0.117431924 0.12289088 -0.18311818
000180 08 1d f5 3c aa 96 0d 3e c0 b3 ad 3b 78 53 0e 3e
       0.02992107 0.13827005 0.005300969 0.13899028
000190 b0 71 4e 3e b4 27 43 3e 2b 52 60 3e d0 9c c9 3c
       0.20160556 0.19058114 0.21906345 0.024610907
0001a0 62 5f 3f 3d 72 89 31 3d 56 9b 22 3d 68 40 46 3e
       0.046721824 0.04334397 0.03969892 0.19360507
0001b0 44 11 85 3e d4 29 45 3d e4 f8 84 bc 9c 58 b5 3c
       0.25989735 0.048135594 -0.016231962 0.022136979
0001c0 ec d7 28 3e c4 22 f9 3d 5b 29 e6 3d a6 fb 6d 3e
       0.16488618 0.12164834 0.11238357 0.23240528
0001d0 46 25 a3 3d 2e 23 4d 3e 1c 0d b4 bd 7b 01 e7 3d
       0.07966094 0.20032951 -0.08791563 0.11279579
0001e0 4d be 8e bd f5 32 96 3d a4 fd 7a 3e dd 3c 16 3e
       -0.06969891 0.07333938 0.24510819 0.14671655
0001f0 0c 30 84 3c b0 4e ae bb 30 4e 29 3e 9a b8 91 3e
       0.016136192 -0.005319439 0.16533732 0.28461152
000200 82 e3 0b 3e aa b4 3f 3e 4c 58 d4 3c f6 2e 8b 3e
       0.13661006 0.18721262 0.02592101 0.27184266
000210 e5 a1 3a 3d 1c 1e ec 3c 04 c4 89 3d c8 65 e8 3c
       0.04556455 0.028822951 0.0672684 0.028368846
000220 da 55 6a 3e 28 fa 49 3c 5e c8 25 3e 28 b2 fe 3d
       0.22884312 0.012327708 0.16189715 0.12436324
000230 40 38 fa 3b 6c 54 86 3d ec 88 57 bd d2 fc 3f 3d
       0.0076361 0.06559071 -0.052620813 0.046871968
000240 3c d4 ac bd 10 ad 29 bd 2e 08 42 3e 5d 5a 9f 3d
       -0.08438918 -0.04142481 0.18948433 0.07780907
000250 8e 9e d6 3d 40 0c cd ba 0e 9c 9d bd cc e0 71 bd
       0.10479461 -0.001564391 -0.07695781 -0.059052274
000260 aa 11 62 3d e0 6f 2a 3d 80 e8 66 bc 03 ae 5e 3d
       0.055192627 0.0416106 -0.014093518 0.05436517
000270 cd bf 81 3d a2 82 92 3d ee 8f 83 3e 5c 8c cb 3c
       0.06335411 0.071538225 0.25695747 0.024847202
000280 c4 75 89 3e 02 75 68 3d 5c 76 9b 3c 0a df 81 3e
       0.2684766 0.056752212 0.018977337 0.25365478
000290 20 b1 aa bd 68 32 2c bc 32 a6 2b 3d a0 bf ff 3b
       -0.08334565 -0.010510065 0.041906543 0.007804826
0002a0 ee a9 85 3d 5c db 0e 3e e4 3b 94 bd 81 47 ed 3d
       0.06526552 0.13950866 -0.07237986 0.11585904
0002b0 ca ed 0b 3d c0 77 52 ba 06 6a 9a 3d 82 4d 32 bd
       0.03416232 -0.00080287084 0.075397536 -0.04353095
0002c0 b5 13 53 3e a0 d4 7c 3c 80 d5 b8 3c 7c 5e 35 3e
       0.20612986 0.015431553 0.022562742 0.17711824
0002d0 58 8a 0e 3d 8e ba 63 3d 0c ba 12 3e 0e 50 71 3e
       0.034799904 0.055597834 0.14328784 0.23565695
0002e0 e8 a7 fb 3c f7 48 80 3d 51 20 97 3e 20 24 ea 3c
       0.030719712 0.06263917 0.29516843 0.028581679
0002f0 3e a9 17 3d 46 50 7c 3e 62 c4 9f 3d ff 5c a3 3d
       0.037026636 0.24639997 0.07801129 0.07976722
000300 aa 65 7b 3d fd b4 83 3e b2 8b 32 3d ac 09 c5 3c
       0.06137625 0.2572402 0.043590255 0.024052463
000310 d7 72 20 3e 94 ab fd 3c 74 8a bc 3c f8 7e 8f 3c
       0.15668808 0.030965604 0.023015238 0.017516598
000320 bc 63 34 3d fe 6b d2 3d bb ed 72 bd 42 c6 20 3e
       0.044040427 0.10274504 -0.05930875 0.1570063
000330 ff 30 38 bd e8 73 8b 3d d6 d6 47 3d cc a5 87 3e
       -0.0449686 0.06809217 0.048788868 0.2649368
000340 7b a8 19 3e d3 fe 6b 3d 9a 28 07 bd 68 15 2e 3e
       0.15005676 0.057616066 -0.032997705 0.17000353
000350 f2 90 4b 3e d6 5c ee bc bb 7b 9f 3d df e8 3e 3d
       0.19879511 -0.029097002 0.077872716 0.046608802
000360 b0 d9 4c 3d ea 39 e9 3d a9 fb 84 3e 24 cc cc 3c
       0.05001229 0.11387999 0.2597325 0.024999686
000370 bf 07 a9 bd e1 29 02 be a0 b9 7e 3d 30 e9 b3 3d
       -0.082534306 -0.12711288 0.062188745 0.08784711
000380 fa 90 8b 3d 82 00 19 3e 59 b6 96 3d 94 2d 78 3e
       0.068147615 0.149416 0.07358999 0.24236137
000390 26 09 74 3e ca d3 8b 3e 38 cd 03 3e 00 27 05 bc
       0.23831615 0.2731002 0.12871253 -0.008126974
0003a0 a6 e7 04 3d 44 24 cb 3d f8 e4 0c 3e d6 10 84 3e
       0.03244748 0.099190265 0.1375922 0.25794095
0003b0 4b 12 97 3e f4 1f c6 3d 42 dc 78 3d c2 8b 58 3d
       0.29506144 0.09674063 0.06075693 0.05286766
0003c0 58 9b 3f 3c 1e 9f 47 3e 4b 4c 04 3e 74 ad 4a 3e
       0.011694752 0.19494292 0.12919728 0.1979273
0003d0 f0 73 31 3d 00 20 8e 3e f0 99 46 3c ca 13 86 3d
       0.043323457 0.2775879 0.0121216625 0.06546743
0003e0 56 d7 8a bd 0f 5d 8e 3d 6e d4 4d 3e ee 71 30 3e
       -0.06779353 0.06951343 0.20100567 0.1723096
0003f0 8c 7f 1c 3d ae 1f 1e 3d be 32 21 3e 90 a4 18 3e
       0.038207576 0.03860443 0.15742013 0.14906526

fc3.bias f4 [3]
000000 95 3f f0 3e 04 45 89 3f bb 4e 74 3f
       0.4692351 1.0724187 0.95432633
