Software Configuration/models/food_monitoring_model_cycle_1.pth (torch, 73060 bytes, 6 tensors)

fc1.weight f4 [128, 4]
0	0xbede7d4f	-0.43454978
1	0xbef00950	-0.46882105
2	0x3d467ec0	0.048460722
3	0x3e3a4705	0.18191154
4	0x3d9a5282	0.07535268
5	0x3d5c9c0f	0.053859767
6	0x3e3b18bb	0.18271153
7	0x3e57ced6	0.21074995
8	0xbeb0d304	-0.34535992
9	0xbee8801c	-0.4541024
10	0xbe0fc218	-0.14038885
11	0x3e4b6c70	0.19865584
12	0xbd79b560	-0.06096399
13	0x3e352dac	0.17693204
14	0xbebf697c	-0.37385166
15	0xbe304c2c	-0.17216557
16	0x3e98de36	0.29857033
17	0x3dbf3265	0.09335784
18	0x3e7f18f4	0.24911863
19	0x39db7800	0.00041860342
20	0xbe06a59c	-0.13149112
21	0x3ce32c60	0.02773112
22	0xbdbdd4e8	-0.09269124
23	0xbee49e88	-0.446522
24	0x3f20b15e	0.6277064
25	0x3f3de29a	0.7417389
26	0x3e754c48	0.2395488
27	0x3f6c4a1e	0.92300594
28	0xbedff153	-0.43738803
29	0xbf194e33	-0.5988495
30	0x3ebea332	0.37233883
31	0x3d873a18	0.066028774
32	0xbc39bf80	-0.011337161
33	0x3eaea9e8	0.34114003
34	0xbeabae6e	-0.33531517
35	0x3e5a2678	0.21303737
36	0x3e10d3f0	0.14143348
37	0x3e33c3a0	0.17555094
38	0xbee7f5e4	-0.45304787
39	0x3e8aeb32	0.27132565
40	0xbe825002	-0.25451666
41	0x3cadebe0	0.021230638
42	0xbe8754d4	-0.26431906
43	0x3ea06d58	0.31333423
44	0x3ebff95c	0.37494934
45	0x3f281755	0.656606
46	0x3e3af998	0.18259275
47	0x3ef492c6	0.4776823
48	0xbe481a14	-0.19541198
49	0xbdbda8d8	-0.0926072
50	0xbe817704	-0.25286114
51	0x3ee0facc	0.43941343
52	0xbf01e1c7	-0.50735134
53	0xbeb3d6e6	-0.35124892
54	0x3ea4445c	0.32083404
55	0xbf291a17	-0.66055435
56	0xbee6d2a2	-0.45082575
57	0xbe6234b0	-0.22090411
58	0xbefc86de	-0.49321645
59	0xbe992d02	-0.2991715
60	0x3dd0a81f	0.101883166
61	0x3ed2ef2a	0.41198093
62	0x3f03b630	0.5144987
63	0x3e9cd936	0.3063447
64	0x3e85663e	0.26054567
65	0x3f089768	0.5335603
66	0x3f06e955	0.52699786
67	0x3f0b7294	0.5447171
68	0x3e893e79	0.26805475
69	0x3ee6e902	0.45099646
70	0x3ed68673	0.41899452
71	0xbd6a3c97	-0.05718669
72	0x3d96c994	0.07362667
73	0x3e05f664	0.13082272
74	0x3de3c6d1	0.111219056
75	0x3f053cfa	0.5204617
76	0xbd46dc66	-0.048550032
77	0xbe6cc7b9	-0.23123063
78	0x3df59608	0.11991507
79	0xbf2d3ca4	-0.67670655
80	0xbd355aba	-0.044275977
81	0x3ac8fbc0	0.0015333816
82	0xbda0a483	-0.07843878
83	0xbdb546ec	-0.08851418
84	0xbe8fa3dc	-0.28054702
85	0x3ec451ba	0.38343602
86	0xbe836a5e	-0.2566709
87	0x3d03e370	0.032199323
88	0x3ee97a3a	0.45601064
89	0x3f27a63b	0.6548802
90	0xbbfaa654	-0.0076492224
91	0x3f715dbb	0.94283646
92	0x3f1aa06d	0.6040104
93	0x3ec8d8aa	0.39227802
94	0x3de930f2	0.11386289
95	0x3f25f1cf	0.64822096
96	0x3de9cd40	0.114161015
97	0xbeaebb58	-0.34127307
98	0xbea798fc	-0.32733905
99	0x3d816488	0.06318003
100	0xbe4484cf	-0.19191287
101	0x3e4b4dd3	0.19853906
102	0x3ed99b01	0.4250107
103	0x3ea80445	0.32815757
104	0x3f1a22cd	0.6020935
105	0x3f133ee0	0.57517815
106	0x3eb318df	0.34979913
107	0x3f492055	0.7856496
108	0xbedf6c22	-0.43637186
109	0x3ea6fb8c	0.3261379
110	0xbebec5ca	-0.37260276
111	0xbe7d1218	-0.24713933
112	0x3ebe2eeb	0.3714517
113	0xbe95cb8d	-0.2925686
114	0x38349d00	4.3061562e-05
115	0x3ed34479	0.41263178
116	0x3e94c000	0.29052734
117	0x3e11ba55	0.14231236
118	0xbc975b7f	-0.018476246
119	0xbf05cd9b	-0.52266854
120	0xbd81e4c0	-0.06342459
121	0xbe9d81ec	-0.30763185
122	0xbc533880	-0.012891889
123	0x3da1eeb8	0.0790686
124	0x3e7903c4	0.24317843
125	0x3e2c7aa7	0.16843663
126	0xbe404dce	-0.1877968
127	0x3e03837e	0.12843129
128	0xbefa0094	-0.48828566
129	0xbe0c9220	-0.13727617
130	0x3e4b5205	0.19855507
131	0xbe3b5deb	-0.18297546
132	0xbef3a224	-0.4758464
133	0x3eac3ea4	0.3364154
134	0xbeb6d23a	-0.35707265
135	0x3ee00eba	0.43761235
136	0xbd81be68	-0.06335145
137	0xbeef629e	-0.46754926
138	0xbee6584c	-0.4498924
139	0x3e0a4504	0.1350289
140	0xbe06a858	-0.13150156
141	0xbce6f4e0	-0.028192937
142	0xbe0ebc58	-0.13939035
143	0x3e62c53c	0.22145551
144	0x3e31c488	0.17360127
145	0x3f1b0ad1	0.6056338
146	0x3d97e885	0.074173965
147	0x3e81f194	0.25379622
148	0x3e095694	0.13411933
149	0xbedd01ea	-0.43165523
150	0xbca2eec0	-0.019889235
151	0x3b96df80	0.00460428
152	0x3e3e21ec	0.18567628
153	0xbebda50e	-0.3703999
154	0xbe64f300	-0.22358322
155	0xbdac6828	-0.08418304
156	0x3ef23524	0.47306168
157	0xbef2c696	-0.47417134
158	0xbe0d57b4	-0.13802987
159	0x3e2ebd34	0.17064363
160	0xbea1e226	-0.3161785
161	0xbf2023de	-0.6255473
162	0x3e9c2120	0.30494022
163	0xbf687fdd	-0.90820104
164	0x3eedb66b	0.46428236
165	0x3f11bb3a	0.5692631
166	0x3e0a1e6a	0.13488165
167	0x3f27e513	0.65583915
168	0xbe00318c	-0.125189
169	0x3ebd0b9e	0.36922926
170	0xbeeb89d0	-0.4600358
171	0xbeb35340	-0.35024452
172	0xbe8400ee	-0.2578196
173	0x3e958112	0.29200035
174	0xbddc98b0	-0.1077131
175	0x3cc51480	0.024057627
176	0xbcdf6b0e	-0.027272727
177	0xbec2d750	-0.38054895
178	0x3e23ae61	0.15984489
179	0xbf1a01d7	-0.6015906
180	0x3f029b92	0.5101863
181	0xbc9f79d2	-0.019467268
182	0x3e5eccb9	0.21757783
183	0x3f0c9eb9	0.5492969
184	0xbe3f46e0	-0.1867938
185	0x3efb2006	0.4904787
186	0x3ed4457a	0.41459256
187	0x3e8a5276	0.27016038
188	0xbf133b5b	-0.57512444
189	0xbecf85ca	-0.4053176
190	0x3ea985a6	0.33109778
191	0xbeb64435	-0.35598913
192	0x3e79bcd2	0.24388435
193	0xbe7bd3b2	-0.24592474
194	0xbd8683b5	-0.0656809
195	0xbec5ad37	-0.38608715
196	0xbd3a009e	-0.045410745
197	0x3eec575f	0.4616041
198	0x3ee3e733	0.44512329
199	0x3da23c22	0.07921626
200	0x3c8e7f60	0.017394722
201	0xbe4ed304	-0.20197684
202	0xbd3c15c0	-0.04591918
203	0xbe197478	-0.14985836
204	0xbebd12ba	-0.3692835
205	0x3edbf5fa	0.42961103
206	0xbe7a80bc	-0.24463171
207	0x3e59c690	0.21267152
208	0x3bb76680	0.0055969357
209	0xbdef5400	-0.116859436
210	0xbe85f726	-0.26165122
211	0x3eb07180	0.34461594
212	0xbe4fd2d4	-0.20295268
213	0xbefafb80	-0.49020004
214	0xbe96810c	-0.2939533
215	0xbdea3538	-0.11435932
216	0xbec14a0e	-0.37751812
217	0x3e0c3740	0.13692951
218	0xbdc2caa8	-0.0951131
219	0x3efb2960	0.49055004
220	0x3caebfa0	0.021331608
221	0x3e473280	0.19452858
222	0xbe13fa48	-0.14450943
223	0xbebdabc8	-0.3704512
224	0x3d8edc98	0.06975669
225	0xbebb9244	-0.3663503
226	0xbefe4f40	-0.49669838
227	0xbe2e0df0	-0.16997504
228	0xbe6b5a50	-0.2298367
229	0x3e5bf8b0	0.21481586
230	0xbda36e38	-0.07980007
231	0x3ee1a4d2	0.4407106
232	0x3efb186c	0.4904207
233	0xbe5847ca	-0.21121135
234	0x3e5909a8	0.2119509
235	0x3e5f9690	0.21834779
236	0xbec22bb0	-0.37923956
237	0xbe8d4970	-0.2759509
238	0xbc754940	-0.014971077
239	0x3d8e1b58	0.06938809
240	0xbd246544	-0.040135637
241	0x3e86122c	0.2618574
242	0x3e6678e8	0.2250706
243	0x3f0f3c54	0.5595143
244	0xbe52bfe4	-0.20581013
245	0x3dee8e90	0.116482854
246	0xbe8ca3e2	-0.27468783
247	0x3ead5724	0.33855546
248	0xbef7dc02	-0.4841004
249	0x3cc239a0	0.023709118
250	0xbdacc9d8	-0.08436936
251	0xbecb4fc4	-0.39709294
252	0x3ec057d2	0.37567002
253	0x3f2d0092	0.67578995
254	0x3e655914	0.22397262
255	0x3e18975a	0.14901486

fc1.bias f4 [128]
0	0xbe4de067	-0.20105134
1	0x3a2dd990	0.00066318456
2	0xbdd99250	-0.1062361
3	0xbe3778a0	-0.17917109
4	0x3cd5414e	0.026032116
5	0xbe498aa4	-0.19681793
6	0x3e9d6910	0.3074422
7	0xbeb4c2c1	-0.35304835
8	0xbcf8f220	-0.030388892
9	0x3ebfe78c	0.37481344
10	0xbe73fc2c	-0.23826665
11	0x3e7d47ea	0.24734464
12	0x3d1541f0	0.036439836
13	0xbf745491	-0.9544154
14	0xbe5f01c4	-0.21778017
15	0x3dc393dc	0.09549686
16	0x3d70af07	0.05876067
17	0xbe9b5045	-0.30334678
18	0x3d1a4a79	0.03766868
19	0xbef00b07	-0.46883413
20	0x3d068b3a	0.03284762
21	0xbeb72570	-0.3577075
22	0xbe3e46d9	-0.18581714
23	0xbdf24c25	-0.1183093
24	0xbe903808	-0.28167748
25	0x3ee3fb88	0.4452784
26	0x3d9dcd2d	0.0770515
27	0x3e877c64	0.2646209
28	0x3e442913	0.19156294
29	0xbef03e64	-0.469226
30	0x3ebb51c0	0.36585808
31	0x3e906267	0.28200075
32	0xbf22fb6d	-0.63664895
33	0x3ed1fbe4	0.4101249
34	0xbdc7ba80	-0.09752369
35	0xbdee6718	-0.11640757
36	0xbe393dee	-0.1809003
37	0xbe921f5a	-0.28539544
38	0x3e00e528	0.12587416
39	0x3e5de9d8	0.21671236
40	0xbf6aaa36	-0.9166597
41	0x3e78f7fc	0.24313349
42	0x3ea68d4a	0.3252967
43	0x3e1004fc	0.14064401
44	0xbf057c06	-0.5214237
45	0xbec37dbf	-0.38181874
46	0x3e2e8844	0.17044169
47	0xbd09d97c	-0.033654675
48	0xbed24135	-0.41065374
49	0xbeb1e537	-0.3474519
50	0x3eec4cbe	0.461523
51	0x3ed1abae	0.40951294
52	0x3eb227ac	0.34795892
53	0xbedcf500	-0.4315567
54	0x3e9d0a6c	0.30672014
55	0xbe8258d6	-0.254584
56	0x3d832440	0.064033985
57	0xbee07aaa	-0.43843585
58	0xbf269d5b	-0.65083855
59	0x3d96eab0	0.07368982
60	0xbe1b9c35	-0.15196307
61	0x3d80e6f8	0.06294054
62	0x3edfbade	0.43697256
63	0x3e4f8d53	0.20268755
64	0xbe2b6de0	-0.16741133
65	0x3e98062d	0.29692212
66	0xbed5df6e	-0.41772026
67	0x3de6f634	0.11277428
68	0xbea5197e	-0.32246011
69	0x3e483024	0.19549614
70	0xbeed4188	-0.4633906
71	0xbec9eed4	-0.39440024
72	0x3edf0e92	0.43565804
73	0xbf1a81bb	-0.60354203
74	0xbe82bb85	-0.2553369
75	0xbed5a4df	-0.4172735
76	0xbf11f8bd	-0.5702017
77	0xbd96ed42	-0.07369472
78	0xbe8d57ec	-0.27606142
79	0x3e423f08	0.18969357
80	0x3ef47de2	0.4775229
81	0x3e666874	0.22500783
82	0xbdefee50	-0.117153764
83	0x3e31cf62	0.17364267
84	0x3de0ad04	0.109705
85	0x3ee38f5e	0.44445318
86	0xbe2e1ece	-0.17003939
87	0x3dcaa6ec	0.09895119
88	0xbee6f590	-0.45109224
89	0x3e3ff4b6	0.18745694
90	0xbe88fa14	-0.26753294
91	0xbe90b9f8	-0.28266883
92	0x3e894192	0.2680784
93	0x3e412c94	0.18864661
94	0x3ed256ce	0.41081852
95	0x3d95f662	0.073223844
96	0xbb7ed800	-0.003888607
97	0xbefd92e8	-0.49526143
98	0xbe89cd20	-0.2691431
99	0xbebef234	-0.3729416
100	0xbe356dfe	-0.1771774
101	0x3cfe2440	0.031023145
102	0x3e989b88	0.2980616
103	0xbebf16f1	-0.3732219
104	0x3eeb7a86	0.45991915
105	0x3eb00df6	0.3438565
106	0x3e8358a0	0.25653553
107	0xbd98b2a5	-0.07455949
108	0xbf57dbf3	-0.8431999
109	0xbe0f960c	-0.14022082
110	0xbe7a55c4	-0.2444678
111	0xbf80c839	-1.0061103
112	0x3f127fb8	0.57226133
113	0xbe8244e4	-0.25443184
114	0x3e7a25f4	0.2442854
115	0xbeabd26a	-0.3355897
116	0x3dec97b0	0.115523696
117	0xbd669c40	-0.056301355
118	0x3f06f789	0.5272146
119	0x3e87afb6	0.26501244
120	0xbf3360dc	-0.7006967
121	0xbf229f22	-0.6352407
122	0x3e56e24c	0.20984763
123	0x3e4c6210	0.19959283
124	0xbe8e3fd0	-0.2778306
125	0x3d773810	0.0603562
126	0x3d548953	0.051888775
127	0xbe3ed728	-0.18636763

fc2.weight f4 [128, 128]
0	0xbd49b30f	-0.04924303
1	0xbd26195e	-0.040551536
2	0x3d9778c5	0.07396082
3	0xbd44a4dd	-0.04800879
4	0xbd14b93c	-0.036309466
5	0xbd64ac1f	-0.05582821
6	0x3c7de428	0.015496291
7	0x3ce3e69c	0.027819924
8	0xbcd496f0	-0.025950879
9	0x3d33acb2	0.043865867
10	0xbd574db4	-0.052564338
11	0xbd9cde13	-0.07659545
12	0xbd849f2e	-0.064756736
13	0x3cf3a4c4	0.029741652
14	0xbac40c40	-0.0014957264
15	0xbd835a82	-0.06413747
16	0x3da35633	0.079754256
17	0xbd01d52e	-0.031697445
18	0x3d617026	0.055038594
19	0xbcb7ecac	-0.022451721
20	0xbd2217ad	-0.03957336
21	0xbd292abe	-0.041300528
22	0xbb972840	-0.0046129525
23	0x3d2eae3e	0.04264664
24	0x3d857f87	0.065184645
25	0x3ceb7578	0.028742537
26	0xbd05ed60	-0.03269708
27	0x3b8e3f00	0.0043410063
28	0xbcaedcf8	-0.0213456
29	0x3d4102f2	0.04712195
30	0xbd4b8524	-0.04968752
31	0x3d94b55b	0.07261153
32	0x3d956667	0.07294922
33	0xbd70d032	-0.0587923
34	0x3ca7f3ec	0.020502053
35	0xbba57ac0	-0.0050500333
36	0xbc9cd410	-0.019144088
37	0x3d1c6396	0.03818091
38	0xbcf37814	-0.029720344
39	0xbd039590	-0.032125056
40	0xbd6ab59d	-0.057302106
41	0x3c9dc6c0	0.01925981
42	0xbd0ae288	-0.033907443
43	0xbd611d17	-0.054959383
44	0xbda80399	-0.08203811
45	0xbd0193b1	-0.03163499
46	0x3d846637	0.064648084
47	0x3d129c2a	0.03579346
48	0x3c6f1d78	0.014594428
49	0xbd0118c4	-0.03151776
50	0xbcee59ca	-0.02909555
51	0xbd29dda1	-0.041471127
52	0xbbd38f00	-0.006456256
53	0x3c916888	0.01775004
54	0x3d641236	0.05568143
55	0x3bfee5e0	0.007778868
56	0x3c3b4990	0.011431113
57	0x3d15eacc	0.036600873
58	0x3d35d4a6	0.04439225
59	0x3cc25254	0.023720898
60	0xbbfdc540	-0.0077444613
61	0x3d4b6fca	0.049667157
62	0x3d73c4de	0.05951392
63	0xbd57e377	-0.05270716
64	0xbc032f80	-0.00800693
65	0x3d3cd50e	0.046101622
66	0xbd654fd7	-0.055984344
67	0x3d936e23	0.07198741
68	0x3ae31980	0.0017326325
69	0xbda29ba3	-0.079398416
70	0x3d215cc6	0.039395116
71	0xbd6d490e	-0.057931
72	0xbd53ef16	-0.051741682
73	0xbc24ce78	-0.010058992
74	0xbcfdb784	-0.030971296
75	0xbd425fcd	-0.047454644
76	0xbd38874c	-0.045050904
77	0x3d8ace11	0.06777585
78	0xbd4371e7	-0.047716048
79	0x3cc77110	0.024345905
80	0x3d847f3d	0.06469581
81	0xbc650270	-0.013977632
82	0xbd8fcd6a	-0.070216015
83	0x3d8c1341	0.0683961
84	0x3cacaadc	0.021077566
85	0x3a22fd00	0.00062175095
86	0xbd30e0aa	-0.043183006
87	0xbce7bba6	-0.02828772
88	0xbb060e40	-0.002045527
89	0x3d5bb4a6	0.053639077
90	0x3d9d1e43	0.076717876
91	0xbd902dcd	-0.07039986
92	0xbd85da73	-0.065358065
93	0x3d830f77	0.06399434
94	0xbd2add43	-0.041714918
95	0xbd46eb8b	-0.048564475
96	0x3d0e2b8c	0.0347095
97	0xbda09475	-0.07840816
98	0x3d2e9e76	0.04263159
99	0x3d0799b4	0.033105567
100	0xb9aade00	-0.0003259033
101	0x3cd26934	0.02568493
102	0x3d938a0b	0.07204064
103	0xbd99f0e8	-0.07516652
104	0x3d124318	0.035708517
105	0xbd4e9730	-0.050437152
106	0xbc6d3b28	-0.014479436
107	0xbd113f99	-0.035461042
108	0x3daff4fd	0.0859165
109	0xb9cfd100	-0.00039637834
110	0x3ce652a8	0.028115585
111	0xbd0df0ea	-0.03465358
112	0x3d441a0a	0.047876395
113	0x3cd430f4	0.025902249
114	0x3d899e15	0.06719605
115	0x3ba06f00	0.0048960447
116	0xbd66d580	-0.056355953
117	0xbd3eb745	-0.0465615
118	0x3c3f32d0	0.0116698295
119	0x3996cc00	0.0002876222
120	0x3da3f785	0.08006195
121	0x3d13cfc2	0.036086805
122	0x3d8456f1	0.06461895
123	0xbd963c5e	-0.07335733
124	0x3ca036f0	0.019557446
125	0x3d962bc9	0.0733257
126	0xbd4b8fc5	-0.049697656
127	0xbd950be1	-0.07277656
128	0xbd15619e	-0.036470048
129	0x3c845980	0.016155958
130	0x3d1715ee	0.03688615
131	0xbdb05b66	-0.08611183
132	0xbd38eb49	-0.04514626
133	0x3d3c527a	0.045977093
134	0x3da69453	0.08133759
135	0xbc4a0628	-0.012330569
136	0x3d0920c8	0.03347853
137	0x3ca52a70	0.020161837
138	0xbd4b9430	-0.04970187
139	0xbca133ec	-0.019678079
140	0xb9881d00	-0.00025961548
141	0xbb9154c0	-0.004435152
142	0xbdb0cb94	-0.086325794
143	0x3d6fa4de	0.05850684
144	0xbc838274	-0.016053416
145	0xbd560869	-0.052254114
146	0x3d042910	0.032265723
147	0xbd22597e	-0.039636128
148	0xbd4d7b8d	-0.050166655
149	0xbcf01e94	-0.029311456
150	0xbb328d60	-0.002724491
151	0xbd83020d	-0.063968755
152	0xbca4ed58	-0.020132706
153	0xbd87b4a3	-0.066262506
154	0xbd44df4a	-0.048064508
155	0xbce14da4	-0.027502842
156	0x3c584348	0.013199635
157	0x3d92fb5d	0.0717685
158	0xbc29da48	-0.010366984
159	0x3d61a222	0.055086263
160	0x39128c00	0.00013975799
161	0x3d8e613f	0.06952142
162	0xbcf05e72	-0.02934191
163	0xbd5db258	-0.05412516
164	0xbd8a7f6d	-0.06762586
165	0xbd4a6471	-0.049412195
166	0xbbe6b9e0	-0.007041201
167	0x3d7a7182	0.061143406
168	0x3da3843d	0.07984207
169	0xbd84a8a4	-0.06477478
170	0x3d7c41c2	0.06158615
171	0xbdb4d9f7	-0.08830636
172	0xbcaa4e58	-0.02078931
173	0xbc9d1418	-0.01917462
174	0xbd5355de	-0.05159556
175	0xbced9f82	-0.029006723
176	0x3d2472be	0.04014849
177	0x3d2a3b42	0.04156042
178	0xbd9a371e	-0.07530044
179	0xbdb2817d	-0.08716104
180	0x3d088532	0.03333015
181	0x3da1e9bf	0.07905912
182	0x3d98f4a3	0.07468536
183	0x3d9aa3c3	0.07550766
184	0x3d990f29	0.07473595
185	0xbd349fdb	-0.044097763
186	0xbcbc5838	-0.022991285
187	0xbcc05400	-0.023477554
188	0xbda9608d	-0.08270369
189	0xbd99ac16	-0.07503526
190	0x3d391bb2	0.045192428
191	0xbd7757da	-0.060386516
192	0x3b9f6340	0.0048641264
193	0xbd4be806	-0.04978182
194	0xbd9a2b85	-0.07527832
195	0xbcba31cc	-0.022728823
196	0x3d02e7de	0.031959407
197	0xbb8e4410	-0.00434161
198	0x3c1f2d50	0.009715393
199	0x3b7557e0	0.003743641
200	0xbd08cd87	-0.03339913
201	0x3be30cd0	0.0069290176
202	0xbd85d832	-0.065353766
203	0x3c87d1a4	0.016579457
204	0x3c040980	0.008058906
205	0xb8b58000	-8.6545944e-05
206	0x3d64d602	0.055868156
207	0x3d30db12	0.04317767
208	0x3c9c25ec	0.019061051
209	0xbcea140c	-0.028574012
210	0x3cac923c	0.021065824
211	0x3d5e8daa	0.05433432
212	0x3d7f2cfa	0.062298752
213	0x3da2abcf	0.07942926
214	0xbd952d32	-0.07284011
215	0x3cf91980	0.030407667
216	0x3c429430	0.011876151
217	0x3cbb619c	0.022873692
218	0xbd5f7bd8	-0.054561466
219	0x3d9d890d	0.07692156
220	0xbd2cce91	-0.042189185
221	0x3ca4f63c	0.020136945
222	0x3cc3f030	0.023918241
223	0xbd9f73f0	-0.07785785
224	0xbd9f9396	-0.07791822
225	0x3ce1992c	0.027538858
226	0xbbd821b0	-0.0065958127
227	0x3d348392	0.044070788
228	0xbda4f9d3	-0.08055463
229	0x3da92cff	0.082605354
230	0xbd3af0e0	-0.045639873
231	0xbdaf5186	-0.08560471
232	0x3d9f8661	0.077893026
233	0xbccb6778	-0.024829611
234	0xbd6b69ba	-0.057473876
235	0xbd6153d9	-0.055011604
236	0x3ce97e70	0.028502673
237	0xbbaa1080	-0.0051899552
238	0x3d55bfc6	0.052184843
239	0x3d767f32	0.060179897
240	0xbdb2f748	-0.087385714
241	0x3d62ac56	0.055340134
242	0x3d6921da	0.05691705
243	0xbd4e455d	-0.05035912
244	0xbcfb0f6e	-0.030647006
245	0x3cacb6cc	0.021083258
246	0xbc465bb0	-0.012106821
247	0x3cee62ac	0.029099785
248	0x3c4ec5f0	0.012620434
249	0x3c4263a0	0.011864573
250	0x3c85d6b0	0.016337723
251	0x3d5ff9fa	0.054681756
252	0x3d8006af	0.06251275
253	0xbc97848c	-0.01849582
254	0x3cba3c54	0.022733845
255	0x3d29fbc2	0.04149986

fc2.bias f4 [128]
0	0xbd1db777	-0.038505044
1	0x3d9f85eb	0.07789215
2	0x3ea4cfc9	0.32189777
3	0xbb572600	-0.0032829046
4	0x3cc2307a	0.023704756
5	0xbe385138	-0.17999732
6	0xbd5a0505	-0.053227443
7	0xbcdacfbe	-0.026710387
8	0x3c548098	0.012970112
9	0xbb65e9c0	-0.0035081953
10	0x3cb398ac	0.021923386
11	0xbd07e6c5	-0.033179063
12	0xbdaef103	-0.08542063
13	0x3d4a3216	0.049364172
14	0xbda5db26	-0.0809844
15	0x3c9dab44	0.019246705
16	0xbe1a7622	-0.15084127
17	0x3ed47401	0.41494754
18	0x3cb03334	0.02150879
19	0xbde29ec8	-0.11065441
20	0xbe150c09	-0.14555372
21	0x3ebcca86	0.36873263
22	0xbddd891c	-0.10817167
23	0xbb62c7e0	-0.0034603998
24	0x3e61f5cf	0.22066425
25	0xbdbe8cc4	-0.09304193
26	0xbd9b7ce8	-0.07592183
27	0x3d7215ae	0.059102707
28	0xbd973a20	-0.07384133
29	0x3c5ec700	0.01359725
30	0xbc3c3c00	-0.0114889145
31	0x3d6e50fa	0.058182694
32	0xbe4c82c0	-0.19971752
33	0x3ebe51fd	0.37171927
34	0x3d2e8cca	0.042614736
35	0xbcbd08bc	-0.023075454
36	0xbd219bc9	-0.03945521
37	0xbe0e4b18	-0.13895833
38	0x3d0c3652	0.03423149
39	0xbe0a1776	-0.13485512
40	0x3d6d7b15	0.05797871
41	0xbde52659	-0.11188955
42	0x3e2800c3	0.1640654
43	0x3e0522c9	0.1300155
44	0x3eacbe3f	0.33738896
45	0x3f0b3550	0.54378223
46	0xbd69489e	-0.05695402
47	0xbd1791ca	-0.03700427
48	0xbd66b16c	-0.056321546
49	0xbe6ab5c2	-0.22920898
50	0x3d87ed9f	0.066371195
51	0xbe2a9a9a	-0.16660538
52	0xbdefbb57	-0.11705654
53	0xbe020c8e	-0.12700102
54	0xbd9cc87b	-0.07655426
55	0xbd261726	-0.04054942
56	0xbdb9bb54	-0.09068933
57	0xbda98d83	-0.08278944
58	0xbdd0a27c	-0.101872414
59	0x3c5a4998	0.01332321
60	0xbd96a576	-0.07355778
61	0xbd11bc3c	-0.035579905
62	0xbcdd331e	-0.027001914
63	0xbd0a9a38	-0.03383848
64	0x3d4ca426	0.04996123
65	0x3d61a7c2	0.055091627
66	0x3ee38b06	0.44442004
67	0x3d5c44aa	0.05377642
68	0x3e4c2161	0.19934608
69	0xbe3ae318	-0.18250692
70	0x3d84f42c	0.064918846
71	0xbdf11299	-0.11771125
72	0xbe1ce732	-0.15322569
73	0xbc167aa8	-0.009184517
74	0xbe36db34	-0.17857057
75	0x3eb72b2c	0.35775125
76	0x3efe4ded	0.49668828
77	0xbd9c4c52	-0.076317444
78	0x3e1205d9	0.14260043
79	0xbe1fe485	-0.15614517
80	0xbd813a6f	-0.063099734
81	0x3d6b8800	0.057502747
82	0x3e9da2fd	0.30788413
83	0xbc7f1b30	-0.015570447
84	0xbc992c54	-0.018697895
85	0xbca43388	-0.020044103
86	0x3cc509fa	0.024052609
87	0xbc573a30	-0.013136432
88	0xbe1113c0	-0.1416769
89	0xbdc67a43	-0.09691288
90	0xbcaae59c	-0.02086144
91	0x3f031e86	0.5121845
92	0xbe1fc05a	-0.1560072
93	0x3ea7abd2	0.32748276
94	0x3e86b1aa	0.26307422
95	0xbd920608	-0.071300566
96	0x3d523afb	0.05132578
97	0x3ebc28a6	0.36749762
98	0xbd343d1d	-0.044003595
99	0xbd94ac7e	-0.07259463
100	0x3cb834b4	0.022486068
101	0xbb66c4a0	-0.0035212412
102	0xbd62e41a	-0.055393316
103	0xbe2f4058	-0.17114389
104	0xbe05ba9a	-0.13059464
105	0xbe85e8d9	-0.2615421
106	0x3e8087ee	0.25103706
107	0x3dfab7eb	0.12242111
108	0x3dc83321	0.09775377
109	0x3dd4b51b	0.103861056
110	0x3e69270a	0.22768798
111	0xbcf2a808	-0.02962114
112	0x3d8255ea	0.06364043
113	0xbe39e693	-0.18154363
114	0xbd00d0e6	-0.03144922
115	0xbde757f9	-0.11296076
116	0x3d003ff4	0.03131099
117	0x3c3a6ce0	0.011378497
118	0x3d9d93bc	0.07694194
119	0x3e98cbef	0.2984309
120	0x3ed18583	0.40922174
121	0xbe3075ff	-0.17232512
122	0xbe0c6586	-0.13710603
123	0x3e1e3b3a	0.1545228
124	0x3e7e7858	0.24850595
125	0xbe218946	-0.15775022
126	0xbdae5f98	-0.08514327
127	0x3e6cc774	0.2312296

fc3.weight f4 [3, 128]
0	0xbd3b77a5	-0.0457684
1	0x3d51d4a2	0.051228173
2	0x3d1aa37c	0.037753567
3	0x3cfbce10	0.030737907
4	0x3e9e7848	0.30951142
5	0x3da95acc	0.08269271
6	0x3d8b7331	0.068090804
7	0x3e4fad38	0.20280921
8	0xbd85102f	-0.064972274
9	0xbd9d235d	-0.07672761
10	0xbc85bc8c	-0.016325258
11	0xbd9b3678	-0.075787485
12	0x3d0b2562	0.033971198
13	0x3d297486	0.04137089
14	0x3dda5c4e	0.10662137
15	0x3d184e8a	0.037184276
16	0x3dec87d3	0.11549344
17	0x3eb2aba4	0.34896576
18	0x3db13807	0.086532645
19	0x3dab96c6	0.08378367
20	0x3d8c90ec	0.06863579
21	0x3ec92ed4	0.3929354
22	0xbe25491c	-0.1614117
23	0x3df78727	0.12086325
24	0x3ec1e3f0	0.37869215
25	0x3eab38a0	0.3344164
26	0x3dbb9552	0.0915934
27	0xbdb2a5b2	-0.0872301
28	0xbd5d1f0f	-0.053984698
29	0xbd989966	-0.074511334
30	0xbc750580	-0.014954925
31	0xbcfb89c8	-0.030705348
32	0x3dd2e669	0.102978535
33	0x3e80e284	0.25172818
34	0x3d496136	0.049164973
35	0x3d69c1e6	0.05706968
36	0x3dece864	0.115677625
37	0x3da3a90f	0.0799123
38	0x3c8a85cc	0.016909502
39	0x3dfbb704	0.12290767
40	0x3d838e43	0.06423619
41	0x3d67e674	0.05661626
42	0x3ec0f838	0.37689376
43	0x3eba0ec0	0.36339378
44	0x3eba8285	0.36427703
45	0x3e94f48e	0.2909283
46	0x3ccd567c	0.025065653
47	0x3e21c016	0.15795931
48	0xbde8c28e	-0.11365233
49	0x3e5cbac1	0.21555616
50	0x3dabe6b3	0.08393612
51	0xbaaabbc0	-0.0013025925
52	0x3df7e7c0	0.1210475
53	0x3d00332a	0.031298794
54	0x3d9e7871	0.07737816
55	0x3d6ddcc2	0.05807186
56	0x3c978f48	0.018500939
57	0x3d180ce2	0.03712166
58	0x3e8052e9	0.25063255
59	0xbcad05a0	-0.021120846
60	0xbbde1430	-0.006777309
61	0x3da3ae29	0.07992203
62	0x3d75e642	0.060034044
63	0x3d535906	0.05159857
64	0x3e754256	0.23951086
65	0x3d4091b6	0.04701396
66	0x3e9dbb00	0.30806732
67	0xbd151329	-0.036395226
68	0x3e95793c	0.29194057
69	0x3d88bb92	0.06676401
70	0x3e8cc7cf	0.27496192
71	0x3d1c876d	0.03821509
72	0x3dbf1c75	0.093315996
73	0x3d876de1	0.066127546
74	0x3d85ab68	0.06526834
75	0x3eba89c2	0.36433226
76	0x3ec1c612	0.37846428
77	0x3c606820	0.0136967
78	0x3eba45fa	0.36381513
79	0xbd8bfcd3	-0.06835332
80	0xbd94d56e	-0.07267271
81	0x3ea0b02e	0.31384414
82	0x3ec0d752	0.37664276
83	0x3d296e06	0.041364692
84	0x3d12e562	0.035863288
85	0x3d4942aa	0.04913584
86	0x3ea30de8	0.31846547
87	0x3cb7025c	0.022339992
88	0x3cc2e0a0	0.02378875
89	0x3d86d7b2	0.06584109
90	0x3d8dfa29	0.0693248
91	0x3e71f99a	0.23630372
92	0x3da55a28	0.080738366
93	0x3d021024	0.031753674
94	0x3eb34416	0.35012883
95	0xbceafb7e	-0.028684374
96	0x3eabc45a	0.33548242
97	0x3ebf6652	0.37382752
98	0xbd0633ee	-0.032764368
99	0xbce84b16	-0.028356116
100	0x3db116cf	0.086469285
101	0xbd0422cb	-0.032259744
102	0x3d846f7a	0.06466575
103	0x3d3c81df	0.046022292
104	0x3e492487	0.1964284
105	0x3e0ab35e	0.13544986
106	0x3deca6ed	0.11555276
107	0x3eae908e	0.3409466
108	0x3e2c3246	0.16816053
109	0x3ead1e5a	0.3381222
110	0x3ebbb016	0.3665778
111	0x3e256af6	0.16154084
112	0x3e027bd4	0.12742549
113	0x3d04e168	0.032441527
114	0xbd73fde8	-0.059568316
115	0x3e0cab93	0.13737325
116	0x3c1c0378	0.009522311
117	0x3d17a15a	0.03701911
118	0x3e6c25ab	0.23061244
119	0x3ebae3c8	0.36501908
120	0x3eba9324	0.36440384
121	0x3d4bdfa2	0.04977382
122	0x3dd9dbaf	0.106376044
123	0x3eaaf658	0.3339107
124	0x3eb0608a	0.34448653
125	0x3d3ff834	0.046867564
126	0xbd2dc591	-0.042424742
127	0x3eaaf1fa	0.33387738
128	0xbd9e1850	-0.07719481
129	0x3d29f8be	0.041496985
130	0x3e189a20	0.14902544
131	0xbb202360	-0.0024435148
132	0x3e8644c6	0.26224345
133	0x3da04262	0.078251615
134	0xbc38ada8	-0.011271872
135	0x3db1fb0b	0.08690461
136	0x3d457f36	0.04821702
137	0x3d27505e	0.04084813
138	0xbdad40ae	-0.08459602
139	0xbac9e980	-0.0015404671
140	0x3e0b21d0	0.13587117
141	0xbcc5d2b8	-0.02414833
142	0x3da524bd	0.08063648
143	0xbd973bc8	-0.07384449
144	0xbca850ae	-0.020546284
145	0x3e8a8644	0.27055562
146	0x3d8bf5bb	0.06833979
147	0x3cda7e34	0.026671506
148	0x3e3101c6	0.17285833
149	0x3e887c2b	0.26657233
150	0xbcd2b4a8	-0.02572091
151	0x3c844d3f	0.016150115
152	0x3e86329c	0.26210487
153	0x3e5cd6ce	0.21566316
154	0x3d5275e8	0.051381975
155	0x3d97273d	0.07380531
156	0x3da2f627	0.07957106
157	0xbcc6c31c	-0.024262957
158	0x3d07f0b0	0.03318852
159	0xbd29b0dc	-0.041428432
160	0x3dca4f3e	0.098783955
161	0x3e478686	0.1948491
162	0xbd8e3c22	-0.06945063
163	0x3d9b29ef	0.075763576
164	0x3e57728f	0.21039794
165	0xbd8f02bb	-0.06982943
166	0xbd96b50e	-0.07358752
167	0x3d1318e4	0.03591241
168	0xbc074aaa	-0.008257547
169	0x3c5c9a50	0.013464525
170	0x3ebbb29c	0.36659706
171	0x3e833b54	0.256312
172	0x3eb06051	0.34448484
173	0x3ebcb930	0.36860037
174	0x3db46b00	0.08809471
175	0xbe392ab3	-0.18082695
176	0xbd9f56cb	-0.07780226
177	0x3d9fa622	0.07795359
178	0x3daa7b99	0.08324356
179	0x3d6561f0	0.056001604
180	0xbdbbcce3	-0.091699384
181	0x3d60c1a9	0.05487219
182	0x3d877c37	0.06615489
183	0x3d1146aa	0.03546778
184	0xbe362ef0	-0.17791343
185	0x3ce4b02c	0.027916037
186	0x3ea28699	0.31743315
187	0xbbe72050	-0.0070534125
188	0x3d799d52	0.060941048
189	0xbc455d58	-0.012046181
190	0xbd3c8f57	-0.046035137
191	0xbba32ac0	-0.0049794614
192	0x3ea8852a	0.32914096
193	0x3d8ab4c5	0.0677276
194	0x3e769805	0.24081428
195	0x3db1a89b	0.08674737
196	0x3e9b6128	0.30347562
197	0x3d8409cc	0.06447181
198	0x3ea69bde	0.32540792
199	0x3d1554ce	0.03645783
200	0x3d4cefa1	0.050033215
201	0xbd90925b	-0.07059165
202	0x3dbb6aed	0.09151254
203	0x3ea55086	0.32287997
204	0x3e9de62e	0.30839676
205	0xbdad2cc0	-0.08455801
206	0x3e9e1b98	0.30880427
207	0x3dc24482	0.09485723
208	0x3d9a3fe7	0.0753172
209	0x3e8f2eb6	0.27965325
210	0x3e7ba85b	0.24575941
211	0x3daa6aac	0.08321127
212	0x3e329136	0.17438206
213	0x3d9bbd43	0.07604458
214	0x3e8a3eb0	0.27000952
215	0x3c837c9c	0.01605063
216	0xbcaf6fbc	-0.021415584
217	0xbda36318	-0.07977885
218	0xbd7d5ad4	-0.0618542
219	0x3ebd5dda	0.36985666
220	0x3cdddf98	0.027084157
221	0x3e3e2566	0.18568954
222	0x3eaa21d6	0.3322894
223	0xbd74a00c	-0.059722945
224	0x3ea82344	0.32839406
225	0x3e9f0abe	0.31062883
226	0x3d384e2e	0.044996433
227	0x3d5f7c66	0.054561995
228	0xbc830afc	-0.015996449
229	0x3d85101b	0.064972125
230	0x3dcaabdd	0.098960616
231	0x3d7ec645	0.062200803
232	0xbd0af142	-0.033921488
233	0x3e1b0aa5	0.1514078
234	0x3ec0e8a6	0.37677497
235	0x3e99bbcb	0.30026087
236	0x3cc425b8	0.023943767
237	0x3ebd29f6	0.36946076
238	0x3ebff8ea	0.37494594
239	0x3caca03c	0.0210725
240	0x3da3bd80	0.07995129
241	0x3d6385dc	0.05554758
242	0x3e303799	0.17208709
243	0x3c760c08	0.015017517
244	0x3d2aebde	0.041728847
245	0x3d218d36	0.03944131
246	0x3d827d39	0.063715406
247	0x3e854e02	0.26036078
248	0x3e9cecca	0.30649406
249	0x3cdcb2b8	0.026940688
250	0x3cc1b650	0.023646504
251	0x3e995de9	0.2995446
252	0x3ea517ff	0.3224487
253	0x3e1bfa0f	0.15232109
254	0x3bf92780	0.0076035857
255	0x3e9352ea	0.28774196

fc3.bias f4 [3]
0	0x3f04fc87	0.51947826
1	0x3ea7947b	0.3273047
2	0x3ec43e71	0.3832889
