Software Configuration/models/food_monitoring_model_cycle_1.pth (torch, 73060 bytes, 6 tensors)

fc1.weight f4 [128, 4]
0.45510006 0.19859187 0.46463245 -0.37890577 -0.4366309 -0.35241365 -0.37661344 0.47109753
0.26072997 0.382052 -0.30585772 -0.0032292604 0.8291645 0.9200775 0.37698355 0.33573386
0.2238522 0.7284047 0.24168704 -0.0726354 0.3529155 0.5257725 0.37066758 -0.44700631
0.04627388 0.88852817 0.21283972 0.62358373 0.02910763 -0.16972739 -0.07728279 -0.27783036
-0.10448512 0.3502406 -0.26970804 -0.009904422 -0.523879 -0.24051897 0.23162875 -0.58890545
0.21009502 0.7090073 0.091446854 -0.14426744 0.37275088 -0.03438562 -0.23451078 -0.29114014
0.35985067 0.08670409 -0.31404647 -0.51510775 -0.20185435 -0.2476117 -0.12218672 0.3806666
-0.070171416 0.2545628 -0.23843461 0.19202048 -0.24173808 -0.23368591 0.004978299 -0.14089978
-0.4319892 0.4841057 -0.19973028 -0.30123216 0.35553914 0.598346 0.22449514 0.3500016
0.20390147 0.64472854 0.3622557 0.13629146 -0.15036994 -0.2519009 0.025141671 -0.65808403
-0.20628844 -0.30177417 0.19326134 -1.6126856 -0.19489267 -0.19043481 -0.0005975589 0.30859625
-0.31899038 -0.5321466 0.33726063 -0.90638757 0.6604081 0.40245557 0.453058 0.55541086
0.97739005 0.67458004 0.24885339 0.91832423 0.24597311 -0.033808738 -0.101742424 -0.31189483
0.8906515 0.45278913 0.46821356 0.2430107 0.49533474 1.1441098 0.14625862 0.70463264
-0.13815224 -0.36450988 -0.37713277 0.43593252 0.16716832 0.31848955 -0.49433386 -0.40284383
0.34668154 0.3321963 -0.40617585 -0.4881792 -0.14984953 0.117197216 -0.19764996 -0.48827833
-0.4059347 -0.4328524 -0.09403682 0.067801714 -0.36784393 0.102657914 -0.47821927 -0.32175422
0.6452591 0.5760273 0.18179129 -0.06458919 0.1531142 -0.3703279 -0.0030367374 0.28466862
0.5007415 0.60442954 -0.0067772437 0.39479047 -0.22056943 0.3400426 -0.25517726 0.34830844
-0.008210659 -0.11490977 -0.21995425 0.33384836 0.5944385 0.33986792 0.38356736 -0.15950376
0.2416115 0.8647228 0.06730292 1.1004949 -0.44664228 -0.12454808 -0.30007756 -0.13060647
0.8557464 0.9403335 0.022084381 0.82003033 0.11708468 -0.056724787 -0.47264528 -0.41759926
-0.12478846 0.34656996 -0.41023326 0.4357072 0.29872915 0.34419522 -0.33555526 0.09909845
-0.24123913 0.24397165 -0.37251878 -0.3083985 -0.22713512 -0.11644238 -0.24692649 0.32736838
0.72317904 0.5955061 0.2364556 0.02134756 0.037436962 0.4038462 -0.45276237 -0.4639836
0.23914506 0.15720072 -0.19860464 0.2166248 0.23698843 -0.11515868 -0.07902318 0.0022847056
-0.25883782 -0.18959492 -0.016082764 0.42163473 0.7921785 0.20527922 0.36347556 0.16870156
-0.27079552 -0.24070215 -0.15341723 -0.031946003 0.62856305 0.6516241 0.43097407 0.056753673
0.5924052 0.656416 0.44733882 0.15607649 -0.2682798 -0.04184389 -0.16524631 0.22497576
0.38696504 0.31707132 0.4542839 0.43955615 -0.1559523 0.16537452 -0.11044035 -0.0663345
0.34081048 -0.12097907 -0.110049725 -0.315301 -0.046435278 0.0988229 -0.037265956 -0.019614602
0.5143851 -0.3342817 -0.015343079 -0.42962378 0.79194653 0.9257977 0.15725504 0.3853882
00000000: e002 e93e ab5b 4b3e 4ee4 ed3e f0ff c1be
00000010: 168e dfbe 906f b4be 7ad3 c0be b233 f13e
00000020: 667e 853e 529c c33e 6299 9cbe 00a2 53bb
00000030: 2044 543f 338a 6b3f fd03 c13e 4fe5 ab3e
00000040: 8339 653e bb78 3a3f cf7c 773e dec1 94bd
00000050: 57b1 b43e 0799 063f 24c8 bd3e 03de e4be
00000060: ae89 3d3d 9576 633f a8f2 593e 2fa3 1f3f
00000070: 2073 ee3c 04cd 2dbe 7046 9ebd c83f 8ebe
00000080: 4bfc d5bd bc52 b33e 2c17 8abe 2846 22bc
00000090: ef1c 06bf 9b4a 76be 1630 6d3e 82c2 16bf
000000a0: 2623 573e 8181 353f 7d48 bb3d d8ba 13be
000000b0: 34d9 be3e f0d7 0cbd 9823 70be 5210 95be
000000c0: 593e b83e ea91 b13d b3ca a0be 1ade 03bf
000000d0: e8b2 4ebe ec8d 7dbe 083d fabd bce6 c23e
000000e0: 08b6 8fbd 0e56 823e 3428 74be 04a1 443e
000000f0: 308a 77be 5c4b 6fbe 0021 a33b 0848 10be
00000100: b02d ddbe b4dc f73e 1886 4cbe 1a3b 9abe
00000110: 3a09 b63e 342d 193f 0ee2 653e 6933 b33e
00000120: 8ccb 503e ee0c 253f 9479 b93e fd8f 0b3e
00000130: 94fa 19be 28f9 80be e8f5 cd3c 3278 28bf
00000140: 473d 53be 2582 9abe 4de6 453e 7b6c cebf
00000150: f291 47be 5801 43be 80a5 1cba 5400 9e3e
00000160: b552 a3be c23a 08bf 6dad ac3e 0409 68bf
00000170: 8110 293f a80e ce3e 38f7 e73e 682f 0e3f
00000180: 3c36 7a3f 47b1 2c3f 6cd3 7e3e 4c17 6b3f
00000190: 60e0 7b3e 087b 0abd 555e d0bd aeb0 9fbe
000001a0: bd01 643f fad3 e73e b0b9 ef3e ccd7 783e
000001b0: 849c fd3e 3172 923f d2c4 153e ce62 343f
000001c0: c877 0dbe 0aa1 babe 8c17 c1be 8c32 df3e
000001d0: 2c2e 2b3e 1011 a33e 5419 fdbe 8c41 cebe
000001e0: 3e80 b13e a215 aa3e 48f6 cfbe a0f2 f9be
000001f0: 2872 19be 1805 f03d c064 4abe 9eff f9be
00000200: acd6 cfbe d49e ddbe 6096 c0bd a0db 8a3d
00000210: 0a56 bcbe 503e d23d 28d9 f4be f8bc a4be
00000220: b32f 253f 8676 133f 7f27 3a3e 5647 84bd
00000230: f8c9 1c3e 9e9b bdbe 0004 47bb 16c0 913e
00000240: 9830 003f e5bb 1a3f a413 debb fa21 ca3e
00000250: f4dc 61be 101a ae3e 98a6 82be 7c55 b23e
00000260: 0086 06bc d055 ebbd b03b 61be 2cee aa3e
00000270: 1f2d 183f 2b03 ae3e f162 c43e f454 23be
00000280: 0169 773e 795e 5d3f 1dd6 893d 04dd 8c3f
00000290: 4cae e4be 1013 ffbd c4a3 99be b4bd 05be
000002a0: 3212 5b3f b2b9 703f 4eea b43c 82ed 513f
000002b0: 18ca ef3d 4058 68bd 90fe f1be 92cf d5be
000002c0: 1891 ffbd 9e71 b13e 180a d2be 0415 df3e
000002d0: 07f3 983e 5b3a b03e e6cd abbe 21f4 ca3d
000002e0: 6407 77be b4d3 793e c8ba bebe 68e6 9dbe
000002f0: 1c96 68be 5879 eebd 4cda 7cbe d49c a73e
00000300: 4322 393f 1673 183f 6b21 723e 14e1 ae3c
00000310: 8057 193d eec4 ce3e 78d0 e7be 428f edbe
00000320: 71e2 743e 3af9 203e 045f 4bbe e4d2 5d3e
00000330: 18ad 723e 50d8 ebbd e8d6 a1bd 00bb 153b
00000340: 6486 84be 2c25 42be 00c0 83bc 82e0 d73e
00000350: 36cc 4a3f b734 523e 7819 ba3e 1ac0 2c3e
00000360: b6a5 8abe a07a 76be 6819 1dbe d0d9 02bd
00000370: 82e9 203f d6d0 263f a2a8 dc3e 8a76 683d
00000380: dea7 173f e10a 283f 9809 e53e 84d2 1f3e
00000390: f85b 89be 8064 2bbd 5436 29be 0c60 663e
000003a0: 4820 c63e 2c57 a23e e697 e83e 810d e13e
000003b0: f6b1 1fbe f057 293e 8d2e e2bd 62da 87bd
000003c0: b67e ae3e e0c3 f7bd c061 e1bd 226f a1be
000003d0: eb32 3ebd a963 ca3d 30a4 18bd cdae a0bc
000003e0: beae 033f f926 abbe 8a61 7bbc a6f7 dbbe
000003f0: 02bd 4a3f 1401 6d3f 7707 213e 9a51 c53e

fc1.bias f4 [128]
0.09303975 0.31488252 0.18159026 0.76226526 -0.09400171 0.17749456 0.31956077 0.38990092
-0.5046979 0.12720412 0.3096719 0.45561278 -0.4057101 -0.4601243 0.07414478 -0.3049258
0.062909424 0.035709746 0.28722334 -0.69799054 -0.34807453 -0.4295155 -0.89434767 -0.067396775
0.66252995 0.21149167 0.029595781 0.5039413 0.48722625 0.064483345 -0.16624218 0.15077859
0.107419014 0.1509996 0.035623576 0.2735924 0.8107026 -0.47933638 0.07887715 -0.25282916
0.0037475144 -0.1321463 0.84453005 0.074655056 0.41393667 -0.10017772 -0.23968947 -0.25647277
0.06620943 0.43508518 -0.34590393 0.3870694 0.06810582 0.59994483 -0.12610787 0.21780702
0.6100105 -0.4487136 -0.19392923 0.19919987 0.018793285 -0.42420885 0.3084409 1.0398656
-0.1193806 0.21075183 -0.3552935 -0.046476603 0.49519318 0.1325264 0.02127508 0.051417075
-0.41036838 0.32271656 -0.20749618 -0.13030928 0.008739346 0.21057433 0.3261301 -0.06648791
0.13991748 -0.35612798 -0.42923075 0.27146792 0.55920595 0.24009705 0.5936977 -0.4696501
0.61114883 0.6481163 -0.23446167 0.84952235 0.25249445 0.27151546 0.9567011 -1.1116557
-0.15836585 -1.1580055 -0.12070503 0.35364765 0.00866284 -0.028133065 -0.26756245 -0.3131683
-0.44649202 -0.08156973 0.48018023 -0.3506236 -0.23151411 -0.9037539 0.518359 0.6324302
0.31115025 -0.21568465 -0.23678076 0.2528018 0.21763474 -0.18289453 -0.31724685 -0.42464077
-0.3944801 -0.4178369 -0.37349325 -0.29594874 -0.32500887 -0.73636526 0.14558235 -0.32142594
00000000: a08b be3d 4838 a13e ccf2 393e d123 433f
00000010: f883 c0bd 22c1 353e 789d a33e 18a1 c73e
00000020: e233 01bf cc41 023e 518d 9e3e 1446 e93e
00000030: 3cb9 cfbe 6a95 ebbe 38d9 973d 3c1f 9cbe
00000040: a8d6 803d 6244 123d f00e 933e 82af 32bf
00000050: d336 b2be 75e9 dbbe f8f3 64bf 5207 8abd
00000060: 909b 293f 4691 583e da72 f23c 4c02 013f
00000070: b875 f93e d80f 843d 643b 2abe b465 1a3e
00000080: 80fe db3d a49f 1a3e 07ea 113d 4e14 8c3e
00000090: 358a 4f3f 946b f5be 588a a13d d372 81be
000000a0: dc98 753b 5c51 07be 1f33 583f c0e4 983d
000000b0: 82ef d33e fa29 cdbd 2871 75be 6650 83be
000000c0: cf98 873d 7cc3 de3e 521a b1be f62d c63e
000000d0: 107b 8b3d fc95 193f 6c22 01be ce08 5f3e
000000e0: a629 1c3f cabd e5be 6295 46be 0dfb 4b3e
000000f0: 60f4 993c e731 d9be f7eb 9d3e 511a 853f
00000100: d17d f4bd 54cf 573e 08e9 b5be 405e 3ebd
00000110: f689 fd3e 00b5 073e 1449 ae3c b69a 523d
00000120: ce1b d2be 1b3b a53e e179 54be cc6f 05be
00000130: 792f 0f3c cca0 573e 86fa a63e d02a 88bd
00000140: 8746 0f3e 6856 b6be 22c4 dbbe d8fd 8a3e
00000150: 1f28 0f3f 00dc 753e 93fc 173f fa75 f0be
00000160: 4074 1c3f f3ea 253f b816 70be 4c7a 593f
00000170: f446 813e 1304 8b3e 5dea 743f bc4a 8ebf
00000180: a82a 22be 8639 94bf 3334 f7bd 4e11 b53e
00000190: 96ee 0d3c 5077 e6bc f2fd 88be 9857 a0be
000001a0: 9a9a e4be 080e a7bd 2fda f53e f084 b3be
000001b0: 0912 6dbe 6a5c 67bf 2db3 043f f2e6 213f
000001c0: 164f 9f3e 70dc 5cbe a876 72be 3d6f 813e
000001d0: a4db 5e3e b448 3bbe 2e6e a2be 846a d9be
000001e0: 4cf9 c9be b8ee d5be 823a bfbe 9886 97be
000001f0: 9067 a6be 6f82 3cbf 8a13 153e f191 a4be

fc2.weight f4 [128, 128]
-0.09371017 -0.0670096 -0.06466747 -0.14378339 -0.08474677 -0.13960385 -0.17412356 0.049674235
0.1479179 -0.017398924 -0.09276935 -0.051221885 -0.049444646 0.015931495 -0.012706824 -0.0742238
-0.08831306 -0.09129033 -0.08560401 -0.18142967 -0.104177594 -0.042949475 -0.08810288 -0.09488
-0.027799204 -0.13060266 -0.10717444 0.11236417 0.07818679 0.06196367 0.08065281 -0.08630523
-0.00062023103 -0.07236434 -0.10838817 -0.08784919 -0.096598186 0.06830495 -0.07301327 -0.13034897
-0.020312399 0.00845059 -0.17781337 0.026183553 0.07064142 0.08913094 0.08527628 0.038620837
-0.043987736 -0.04215356 -0.09997168 0.024450712 -0.03703279 -0.06193021 0.053283386 -0.092421174
-0.17647451 0.045321457 -0.11522506 -0.028675236 0.08814026 -0.14663391 -0.034727305 0.09716026
-0.08209521 -0.006433092 -0.086178355 0.0013971254 -0.047953513 -0.044039294 -0.054958045 -0.16327673
0.05506531 -0.122960016 -0.04799466 0.07510609 -0.16703776 -0.041704845 0.083208926 -0.07806894
-0.13528079 -0.042249687 -0.13921104 0.081270956 -0.118662365 -0.11540672 -0.07024701 0.06939607
-0.031122789 -0.0813265 0.040448926 -0.1082661 -0.014198959 -0.09608972 -0.12461806 -0.13337247
-0.02301947 -0.11689563 -0.025247663 -0.034064777 -0.09259625 -0.11772062 0.059603103 0.016951233
-0.02562794 0.02555871 -0.14283176 -0.08439512 -0.105415024 -0.04998663 -0.025988221 -0.095591806
0.0574323 0.014989369 0.05777514 0.15042114 -0.055422053 0.056394257 0.051521413 0.05788412
-0.001039952 0.022339486 0.04711347 -0.07813192 0.04434555 -0.13430634 -0.07909913 -0.08510919
0.09569472 -0.0030475855 0.0030691326 0.26382113 0.24789172 0.11417721 0.12330391 -0.007478662
0.060386866 -0.3744887 0.2187283 0.04204323 0.07123789 0.067360245 -0.07674816 -0.01793699
-0.051706996 0.12644072 0.16365203 0.10037462 -0.39602706 0.043876387 -0.48341018 0.16039285
0.2745984 0.11670603 0.17470565 0.19879967 0.03305766 -0.0773928 0.025830694 -0.055223446
-0.061654706 0.063447826 0.22924513 -0.045643907 0.7645117 0.002756901 0.030787379 0.04921419
0.25307631 -0.06760512 0.60483015 -0.06933722 0.08051387 0.055653434 -0.00959792 0.016875252
0.283668 0.011908591 0.14348571 -0.06787071 0.003081806 0.099765174 0.046585865 0.12895003
0.1717216 0.05803155 0.19511 0.1117542 -0.06468595 -0.004346824 0.044324875 0.33849016
0.12065453 0.041196696 -0.083905354 0.03746935 0.07558284 0.0146926865 0.23749089 0.35076573
-0.06528632 0.22734556 0.39520615 -0.046803065 0.2961953 -0.012020767 0.035027035 0.054592155
0.13787588 -0.06010229 0.0811404 -0.062327128 0.28335375 0.15645728 0.46733367 0.0063205734
0.22155884 0.14141361 -0.0070702285 0.19435431 0.06459129 0.09887294 0.35475206 -0.47589928
-0.022001803 -0.39861077 0.21341556 -0.041456133 0.08997703 0.108807065 0.053957097 0.061612494
-0.0039405823 -0.026278548 0.2829276 0.2139416 -0.46133152 -0.4302624 0.67231125 0.18237804
0.082408465 0.08203215 0.043677993 0.359968 0.0137180835 -0.03536918 0.015762627 0.030690037
-0.0477838 -0.084941566 -0.029363908 -0.0729169 0.04019711 -0.41047162 0.098813884 0.18255824
00000000: 1eeb bfbd 543c 89bd 6170 84bd f43b 13be
00000010: b78f adbd 50f4 0ebe 724d 32be 3677 4b3d
00000020: ca77 173e 3088 8ebc dbfd bdbd 0ace 51bd
00000030: 7886 4abd c482 823c 4830 50bc a602 98bd
00000040: 7add b4bd 6df6 babd 2851 afbd b3c8 39be
00000050: 105b d5bd caeb 2fbd 486f b4bd 7250 c2bd
00000060: 28bb e3bc b4bc 05be 467e dbbd 301f e63d
00000070: 6520 a03d 9ecd 7d3d 4d2d a53d ccc0 b0bd
00000080: 0097 22ba c133 94bd 9efa ddbd 47ea b3bd
00000090: 45d5 c5bd 77e3 8b3d fb87 95bd 337a 05be
000000a0: 3066 a6bc 5874 0a3c b514 36be e47e d63c
000000b0: 73ac 903d 488a b63d 55a5 ae3d e230 1e3d
000000c0: 7c2c 34bd 36a9 2cbd f4bd ccbd dc4c c83c
000000d0: b2af 17bd 88aa 7dbd ae3f 5a3d 5047 bdbd
000000e0: bcb5 34be fea2 393d 1efb ebbd 54e8 eabc
000000f0: e182 b43d 3327 16be 383e 0ebd f5fb c63d
00000100: 8921 a8bd b0cc d2bb 477e b0bd c01f b73a
00000110: e76a 44bd 8c62 34bd b01b 61bd 0432 27be
00000120: 2a8c 613d 76d2 fbbd 0c96 44bd 39d1 993d
00000130: f20b 2bbe b3d2 2abd 7169 aa3d 9ce2 9fbd
00000140: 0c87 0abe 020e 2dbd 578d 0ebe 6371 a63d
00000150: 4105 f3bd 5c5a ecbd aadd 8fbd 871f 8e3d
00000160: 38f5 febc 828e a6bd c6ad 253d 9eba ddbd
00000170: c0a2 68bc b0ca c4bd c137 ffbd cb92 08be
00000180: 5493 bcbc fa66 efbd 30d4 cebc 8287 0bbd
00000190: 1aa3 bdbd 8217 f1bd 6222 743d 50dd 8a3c
000001a0: b0f1 d1bc 8060 d13c 7d42 12be 59d7 acbd
000001b0: d5e3 d7bd c8be 4cbd 40e5 d4bc a3c5 c3bd
000001c0: 223e 6b3d f895 753c a0a5 6c3d 0008 1a3e
000001d0: 3c02 63bd aafd 663d 1e08 533d e617 6d3d
000001e0: 004f 88ba 4c01 b73c 0efa 403d a103 a0bd
000001f0: aea3 353d 9a87 09be bafe a1bd ba4d aebd
00000200: 98fb c33d 00ba 47bb 8023 493b 9013 873e
00000210: 54d7 7d3e bed5 e93d c386 fc3d 900f f5bb
00000220: 3858 773d fcbc bfbe 50fa 5f3e 8635 2c3d
00000230: 2ce5 913d 2bf4 893d 242e 9dbd 98f0 92bc
00000240: b7ca 53bd ad79 013e 6694 273e 3591 cd3d
00000250: 0fc4 cabe bab7 333d 8a81 f7be 063e 243e
00000260: 2998 8c3e 9203 ef3d 0ae6 323e 2492 4b3e
00000270: 7867 073d 1e80 9ebd e49a d33c fb31 62bd
00000280: a589 7cbd eff0 813d 3cbf 6a3e 1bf5 3abd
00000290: 0ab7 433f 20ad 343b d035 fc3c d294 493d
000002a0: 3893 813e 8e74 8abd 26d6 1a3f ac00 8ebd
000002b0: 75e4 a43d dbf4 633d 9840 1dbc f83d 8a3c
000002c0: ef3c 913e 401c 433c ebed 123e ccff 8abd
000002d0: 20f8 493b af51 cc3d d2d0 3e3d 7a0b 043e
000002e0: cad7 2f3e 7eb2 6d3d eaca 473e 63df e43d
000002f0: 117a 84bd cd6f 8ebb 008e 353d 954e ad3e
00000300: b919 f73d debd 283d 92d6 abbd 7679 193d
00000310: 2dcb 9a3d 98b9 703c d030 733e 9197 b33e
00000320: d6b4 85bd 46cd 683e 7658 ca3e 92b4 3fbd
00000330: e9a6 973e c0f2 44bc 8278 0f3d 069c 5f3d
00000340: 562f 0d3e d22d 76bd f02c a63d bb4a 7fbd
00000350: be13 913e 5636 203e 5c46 ef3e d01c cf3b
00000360: 52e0 623e bbce 103e 60ad e7bb d104 473e
00000370: 7048 843d e57d ca3d 10a2 b53e 12a9 f3be
00000380: 203d b4bc b616 ccbe 9c89 5a3e e8cd 29bd
00000390: e145 b83d 3dd6 de3d 1e02 5d3d 625d 7c3d
000003a0: 0020 81bb 1c46 d7bc e3db 903e 8213 5b3e
000003b0: a533 ecbe 5a4b dcbe 971c 2c3f 4fc1 3a3e
000003c0: c5c5 a83d 7900 a83d b2e7 323d ba4d b83e
000003d0: d0c1 603c 46df 10bd a020 813c ac69 fb3c
000003e0: f2b8 43bd d8f5 adbd 948c f0bc 7555 95bd
000003f0: baa5 243d 5629 d2be ef5e ca3d 8cf0 3a3e

fc2.bias f4 [128]
-0.18195167 0.7602685 -0.17067122 -0.024546064 -0.11787832 -0.122193575 0.072784536 0.662027
-0.12638348 0.75678176 -0.003929563 -0.1366317 0.053569324 -0.015133992 -0.16126174 -0.016565122
0.059025563 0.16375995 -0.083225526 -0.01183292 -0.007711323 -0.1418092 -0.20820676 0.8664151
-0.0261826 -0.031212136 -0.0010640621 0.0064391717 -0.10706541 -0.0659474 -0.12640809 1.0303314
0.6582173 -0.13016051 -0.08380933 0.009722143 0.6280002 0.005089037 -0.23843591 -0.04871165
0.93120503 -0.041821264 0.16369689 -0.15323654 -0.12439086 0.017840922 -0.1499636 0.8037882
0.22745904 -0.1488442 0.72540504 0.79232925 0.6779272 -0.074287176 0.48864648 0.010324419
-0.055532284 0.01924973 -0.07620194 -0.028664913 0.67186385 0.7019972 -0.08152486 -0.024862573
-0.09317279 0.58027357 0.83401644 -0.051612638 -0.118536025 -0.050884143 -0.16884804 0.047214672
0.9204039 -0.23727624 -0.026624184 0.5883759 -0.18424785 -0.61464643 0.03547471 -0.094052486
-0.0945888 -0.15621191 -0.0169143 -0.15929696 -0.014847249 0.77088207 0.043072335 -0.13376173
-0.056242008 0.086937584 0.07709312 0.6175745 0.041013755 -0.0903473 -0.031119533 -0.023547739
0.7954977 -0.21250272 0.7903457 0.06838537 -0.015290096 0.017619513 0.57496226 0.07843725
-0.0233351 0.06524209 0.0014693737 -0.04864978 0.035063177 -0.050242953 -0.29598954 -0.0806356
-0.16187811 -0.10328998 0.028314978 0.7979388 -0.063985266 -0.029584482 -0.11634816 -0.04797721
0.85927385 -0.09672228 -0.020116523 -0.066623464 -0.18667814 -0.014211571 -0.052039377 0.06600746
00000000: 8a51 3abe f5a0 423f 70c4 2ebe d414 c9bc
00000010: 306a f1bd a040 fabd 0f10 953d 9a7a 293f
00000020: ac6a 01be 73bc 413f 90c3 80bb 2ee9 0bbe
00000030: 826b 5b3d 90f4 77bc cc21 25be 94b3 87bc
00000040: cac4 713d b0b0 273e 2572 aabd ddde 41bc
00000050: 44af fcbb 6e36 11be 2734 55be 61cd 5d3f
00000060: e47c d6bc 98b0 ffbc 0078 8bba b0ff d23b
00000070: 1c45 dbbd 6e0f 87bd 1f71 01be e6e1 833f
00000080: ee80 283f cc48 05be 3aa4 abbd a049 1f3c
00000090: 9fc4 203f f0c1 a63b 8b28 74be de85 47bd
000000a0: 7463 6e3f c64c 2bbd 28a0 273e 0aea 1cbe
000000b0: a3c0 febd 2027 923c 0f90 19be 10c5 4d3f
000000c0: 06eb 683e 9d6a 18be 25b4 393f 17d6 4a3f
000000d0: a38c 2d3f e023 98bd df2f fa3e c027 293c
000000e0: d275 63bd 9cb1 9d3c c30f 9cbd aed2 eabc
000000f0: 45ff 2b3f 17b6 333f 81f6 a6bd 98ac cbbc
00000100: 60d1 bebd cf8c 143f 1a82 553f c667 53bd
00000110: 04c3 f2bd e46b 50bd 80e6 2cbe 2c64 413d
00000120: 979f 6b3f 8bf8 72be f61a dabc ce9f 163f
00000130: 78ab 3cbe 7859 1dbf ee4d 113d 979e c0bd
00000140: c6b7 c1bd 04f6 1fbe dc8f 8abc be1e 23be
00000150: e041 73bc 8758 453f 9e6c 303d d6f8 08be
00000160: 055e 66bd 550c b23d ffe2 9d3d 5d19 1e3f
00000170: 0afe 273d 0108 b9bd 64ee febc 30e7 c0bc
00000180: bda5 4b3f 509a 59be 1954 4a3f a10d 8c3d
00000190: 5083 7abc cc56 903c ba30 133f b5a3 a03d
000001a0: 4029 bfbc a59d 853d 0098 c03a fe44 47bd
000001b0: 689e 0f3d 8ecb 4dbd f18b 97be 4724 a5bd
000001c0: 60c3 25be b289 d3bd d0f4 e73c b845 4c3f
000001d0: b50a 83bd 285b f2bc f247 eebd c083 44bd
000001e0: 5ff9 5b3f 5516 c6bd 68cb a4bc e271 88bd
000001f0: 8e28 3fbe a6d7 68bc 3e27 55bd eb2e 873d

fc3.weight f4 [3, 128]
0.025796123 0.19714119 0.06432897 0.05232539 0.05486729 0.034312114 -0.059863225 0.38805488
0.1144092 0.2453317 0.046024658 -0.14771774 0.085116945 0.0008931458 0.05077318 0.10864866
-0.052453764 0.049730312 -0.043701362 0.14137784 0.109984204 0.076914206 0.07973483 0.0063788584
0.012669995 0.042138275 0.076723106 0.03681328 0.025009952 0.012836076 0.07562814 0.55331165
0.20008022 0.017244555 0.0024886131 -0.016306393 0.18602641 0.039572377 -0.0142282285 -0.04468455
0.08487158 0.02131024 0.16836086 -0.022805575 0.04356069 -0.07186551 0.06242703 0.25158098
0.2298338 0.15686797 0.21755639 0.25765193 0.36309806 0.08963466 0.21034628 0.02299472
0.035506427 -0.08143661 0.14248306 -0.039200034 0.21285337 0.3023652 -0.086767934 0.08566979
0.028181888 0.17135304 0.3444973 0.08674823 0.043965027 0.036562257 0.04520604 0.1590695
0.24827695 0.056259904 -0.018809251 0.16367473 0.13323873 -0.49073535 -0.002619788 0.022766694
-0.012575112 0.024124019 0.047160484 0.08843862 -0.059487738 0.0715434 -0.06039108 0.03144619
-0.029344492 0.03387893 -0.015603662 0.64945865 -0.06256709 0.041676544 0.021058612 -0.06552559
0.22838499 -0.046932593 0.2868103 0.029224172 0.0503029 0.017037421 0.19199632 -0.052579425
0.014278792 -0.011226729 0.02063629 0.082017295 0.049261637 0.021966234 0.109332785 -0.05632944
0.084129296 0.03885062 -0.009591453 0.21180503 0.05335686 0.027001612 0.026600711 -0.081790015
0.2740548 0.0045448914 0.11844538 0.002656214 0.020733386 0.075827494 0.012663186 -0.02053544
-0.038489655 0.21928126 -0.014334217 -0.074659154 0.09897332 -0.01600951 -0.08281676 0.29529572
-0.024644285 0.22674763 -0.0006560162 0.046005018 0.034881935 -0.08254674 -0.039899133 -0.040565163
-0.07045612 -0.05704713 0.086541034 0.009097092 -0.026036318 -0.025116637 -0.09347722 0.38688257
0.07086726 -0.17291577 -0.024651714 -0.04249496 -0.06072992 0.11531615 -0.06275597 0.4081039
0.1722103 -0.13078967 0.034824267 0.07393692 0.20278332 -0.0003886819 -0.10512969 -0.032792713
0.31074196 -0.060727496 -0.03255327 -0.10637288 -0.064918056 -0.04722707 -0.042396218 0.2627163
0.08031053 -0.08544579 0.21222365 0.22820133 0.28559992 -0.053763963 0.13385409 -0.003098987
-0.03832476 -0.02369935 -0.04978436 0.022712871 0.21376681 0.23121452 0.070539184 -0.069731936
-0.058599755 0.17563605 0.24468638 0.12394772 -0.028480813 -0.06937094 -0.09265022 -0.032760333
0.38477042 -0.06351663 -0.018490635 0.22024131 0.024264723 -0.6121217 0.011795521 0.15268902
0.15757306 -0.15184544 0.006215796 0.12481073 0.013647288 0.3386327 0.08391366 -0.083678074
0.05938255 0.046741582 0.01380977 0.3025195 0.012607925 -0.13751508 -0.035822988 -0.08835898
0.24590313 -0.09060791 0.25678715 0.08378855 -0.06321736 0.039581917 0.19508731 0.07826991
0.063583076 -0.07297314 -0.06901516 -0.004289329 0.032256797 -0.032944843 -0.03576773 -0.06604217
-0.019921884 0.022968195 0.15126021 0.12205282 -0.05021523 -0.16183685 -0.079541765 0.057079293
0.25707045 0.1612659 -0.058371708 -0.021227397 -0.08965433 -0.03192177 -0.015487425 -0.04739311
00000000: 6452 d33c 61df 493e e8be 833d 2653 563d
00000010: 86bc 603d dc8a 0c3d 2433 75bd 21af c63e
00000020: 5f4f ea3d 3c38 7b3e 5a84 3c3d 5243 17be
00000030: cb51 ae3d 0022 6a3a 8af7 4f3d 3083 de3d
00000040: c2d9 56bd 03b2 4b3d 3300 33bd 5ac5 103e
00000050: 663f e13d 3285 9d3d 044c a33d be05 d13b
00000060: d095 4f3c 2f99 2c3d 0121 9d3d 86c9 163d
00000070: ace1 cc3c 684e 523c ede2 9a3d d5a5 0d3f
00000080: d4e1 4c3e 7444 8d3c 0018 233b fc94 85bc
00000090: b57d 3e3e a516 223d 841d 69bc 2607 37bd
000000a0: 27d1 ad3d d092 ae3c ca66 2c3e c2d2 babc
000000b0: b26c 323d 392e 93bd 7cb3 7f3d 39cf 803e
000000c0: 8d59 6b3e ffa1 203e 1ac7 5e3e f4ea 833e
000000d0: fde7 b93e 6092 b73d 0465 573e 6c5f bc3c
000000e0: 306f 113d 3dc8 a6bd 14e7 113e 3790 20bd
000000f0: 3cf6 593e 9dcf 9a3e 63b3 b1bd a573 af3d
00000100: b4dd e63c 2c77 2f3e f361 b03e 0ea9 b13d
00000110: ac14 343d 4ec2 153d f829 393d 1de3 223e
00000120: 503c 7e3e c970 663d dc15 9abc 599a 273e
00000130: bc6f 083e aa41 fbbe c0b0 2bbb 3881 ba3c
00000140: d807 4ebc bc9f c53c 5a2b 413d 4f1f b53d
00000150: 6aa9 73bd 5985 923d a35c 77bd b8cd 003d
00000160: dc63 f0bc a2c4 0a3d 80a6 7fbc ec42 263f
00000170: 2d23 80bd 06b5 2a3d 1c83 ac3c 4832 86bd
00000180: c1dd 693e 643c 40bd cdd8 923e 8867 ef3c
00000190: 6a0a 4e3d 1092 8b3c af9a 443e 865d 57bd
000001a0: 98f1 693c 50f0 37bc 700d a93c aff8 a73d
000001b0: 92c6 493d 88f2 b33c dee9 df3d b3b9 66bd
000001c0: fb4b ac3d d421 1f3d 7825 1dbc 6be3 583e
000001d0: b98c 5a3d 7c32 dd3c bce9 d93c 8681 a7bd
000001e0: e950 8c3e 50ed 943b 7e93 f23d e013 2e3b
000001f0: 10d9 a93c 724b 9b3d 4079 4f3c f039 a8bc
00000200: 54a7 1dbd 448b 603e 10da 6abc e6e6 98bd
00000210: 86b2 ca3d 6026 83bc d59b a9bd 0031 973e
00000220: d0e2 c9bc 8830 683e 80f8 2bba c26f 3c3d
00000230: 5ce0 0e3d 440e a9bd 466d 23bd a827 26bd
00000240: 4c4b 90bd 40aa 69bd 6d3c b13d f80b 153c
00000250: 1e4a d5bc 68c1 cdbc fc70 bfbd 7915 c63e
00000260: db22 913d d510 31be 64f2 c9bc 320f 2ebd
00000270: f0bf 78bd e02a ec3d 3486 80bd fff2 d03e
00000280: e657 303e baed 05be e4a3 0e3d 3d6c 973d
00000290: 6ea6 4f3e 00c8 cbb9 3c4e d7bd a751 06bd
000002a0: 9219 9f3e 65bd 78bd 9456 05bd 06da d9bd
000002b0: c2f3 84bd 2c71 41bd a8a7 2dbd c082 863e
000002c0: d979 a43d 34fe aebd 2851 593e 9cad 693e
000002d0: 273a 923e 9a37 5cbd 0c11 093e 6018 4bbb
000002e0: 6cfa 1cbd 2425 c2bc afea 4bbd 5810 ba3c
000002f0: b0e5 5a3e 80c3 6c3e d976 903d 9ecf 8ebd
00000300: 4c06 70bd f0d9 333e 118f 7a3e 4dd8 fd3d
00000310: 9850 e9bc 5a12 8ebd 66bf bdbd b32f 06bd
00000320: a100 c53e 0215 82bd ac79 97bc f086 613e
00000330: d0c6 c63c 02b4 1cbf 0042 413c 835a 1c3e
00000340: d55a 213e 5f7d 1bbe e0ad cb3b c59c ff3d
00000350: e098 5f3c 4461 ad3e edda ab3d 695f abbd
00000360: 1e3b 733d 1a74 3f3d 6042 623c d6e3 9a3e
00000370: 7891 4e3c c1d0 0cbe 20bb 12bd 8ef5 b4bd
00000380: 08ce 7b3e a490 b9bd 9b79 833e 5599 ab3d
00000390: 1a78 81bd a620 223d f8c4 473e f94b a03d
000003a0: d837 823d f172 95bd d257 8dbd 808d 8cbb
000003b0: b41f 043d 2cf1 06bd 2f81 12bd 1e41 87bd
000003c0: 3833 a3bc cc27 bc3c f5e3 1a3e d4f6 f93d
000003d0: 7cae 4dbd 8fb8 25be cbe6 a2bd facb 693d
000003e0: bd9e 833e e322 253e 2c17 6fbd 14e5 adbc
000003f0: b09c b7bd 67c0 02bd f8be 7dbc 471f 42bd

fc3.bias f4 [3]
1.040639 0.6296719 1.0723792
00000000: a933 853f 2d32 213f b943 893f
