Software Configuration/models/food_monitoring_model_cycle_3.pth (torch, 73060 bytes, 6 tensors)

fc1.weight f4 [128, 4]
00000000: 4ae1 e8be 4c4d f93e d076 90be 5aff b73e
00000010: 9631 01bf 27cd dc3e 28c7 ebbd cbe4 01be
00000020: 70a0 e63e 1155 0d3f 42c4 af3d 54c5 073e
00000030: e88d bd3e a8e3 2bbe 3e2e bcbe 06b1 953e
00000040: cd7a cabe 3268 6e3e 440d a13e 3d9c efbe
00000050: 6658 933e 2857 6abe ce29 e6be 06ea 9e3e
00000060: 60cd 5c3e 987e cbbe 8843 60bc 7239 84be
00000070: 6102 443e e4e8 273f bc1a 053f 1891 eebd
00000080: e6ab 863e d653 943e 2058 e4be d88d 3c3e
00000090: 1280 79be 975f e7be ac83 843c e9f6 5abe
000000a0: 410e 7a3e e457 eb3e 90ce 9dbe 5c66 df3e
000000b0: 742d 4c3e 6085 45bd 1247 97be 2e5c fd3e
000000c0: 2c34 1e3f d23e ad3e dda1 e33e 89d1 343e
000000d0: dd3e 0b3f 0c94 293f c118 cb3e 6eaa 1d3e
000000e0: 32e3 f3be a0c9 213e 608a e1bc 7c53 8f3e
000000f0: e6d7 013f 6d67 9d3e 4b6d 1e3c 67cc f03e
00000100: ba3b 22be ed36 9c3d 4b0f 8f3e 4cbe 983d
00000110: 5e1d 86bd 2c26 e63e 00ca 233d b4f4 933e
00000120: 6df7 9d3e 1dba 413e a352 243e deb2 e83d
00000130: 80c0 e4bb ca82 81be bc04 f6be c6ca e33e
00000140: 6b42 07bf 493c de3e aaae 953e 0486 83bf
00000150: 5cad 263e 6afe e0be 1e86 b7be 10ba 303e
00000160: 702b b43d 6857 adbd 5ccb 9dbe 9e93 dbbe
00000170: 3c8a 97be 00fd 8f3c 5ccc 64be f080 06bd
00000180: b435 11be de7b b8be 6044 3abd 96ea ce3e
00000190: d0ff f1be e8b8 0dbe 687a a9be be05 de3e
000001a0: c9dd 0dbf c759 29bd 56b2 e83d a825 57bf
000001b0: e0c6 bfbd a0fb 94bc 7864 dabd 3a47 ec3e
000001c0: a036 d0be 3ce0 683e d096 40be 147a 413e
000001d0: dc74 fdbe 5667 853e 9e5f f1be 8425 8abe
000001e0: 9219 15be 6afa 363e 05d3 e5bd fea2 013e
000001f0: 2fb1 8b3d c101 b63e 30b6 e63e b2dd 02be
00000200: 6ec8 0bbf 4f58 fdbe 39de 9b3e 1e07 9a3d
00000210: bf5b 133f 6757 e83e 9e40 e63e e314 ae3e
00000220: 6f4d 74be 4cb3 91bc f925 ba3d e48c 81bf
00000230: 0624 e4be 3e78 983e 50ee cbbe b0ab 973d
00000240: e859 cabe a468 8ebe c86e 63bc 7ccd babe
00000250: 84c8 9cbe ae42 b13e 6ef1 dabe d810 dbbd
00000260: fe85 87be 3cd1 a1be a486 abbe 80e6 bbbc
00000270: e055 d2be 3cae 663e bcf9 62be 701e d2bd
00000280: 7836 37be f09e 783e 142e 0cbe 780d 2d3e
00000290: c033 863e 59d5 c73e 63a2 a53d 7c61 dc3e
000002a0: 9df3 cfbe dec8 20bf 2f7a 943e a8ad 43be
000002b0: 6c44 ddbe 802c 08bc ca59 8ebd 4776 acbe
000002c0: cb9f 25be 16bf 813d c599 f13e 7aef fdbe
000002d0: 9de0 2b3e 72a5 913e 0d61 8bbe 9d5f 9f3d
000002e0: 2e3e c03e b45a 78be 5cbe f7be 9466 023e
000002f0: 540b 33be 56cc d33d 3352 81bd b5a0 b7bd
00000300: 0174 163e 1c33 5d3e d6d7 6dbe 635e d3be
00000310: 19b6 11bf 8a08 4b3e 007b 5d3a f12e 19bf
00000320: 30a8 e1be 4064 e63d 201f 4dbd 00c9 c2bd
00000330: 3c5e cd3e 72be a43d 457e a63e a000 4abe
00000340: 7858 77be d81a 6a3e 509c c8be 78c5 ab3d
00000350: d0a3 f13e 088d a1be 96ac fcbe 9e48 f4be
00000360: e905 87be d55f d23e b7ba f03e a755 e1be
00000370: 501c 85be 53ba a93d 2c1f b93e 1688 f83d
00000380: c2c5 89be c283 d73e 8e63 83be 3c12 013e
00000390: baf0 eebe 2cab 1bbf 6e88 d83e e39e 463e
000003a0: 288d 01bf a04f d4bd f805 76bd 1884 2ebe
000003b0: 5025 503d 108e 68be 78c5 babe 3007 2dbe
000003c0: 682d 93bd 3021 883e b07d 68be 1041 01be
000003d0: 3052 e63e fcf4 3bbe e8e7 e8bd 0a2d a93e
000003e0: ae8c 9cbe a092 9ebc e097 adbc 4023 ee3d
000003f0: 7e6c c1be 0618 7dbe 3f1b 4c3e 4d1a e3bd
-0.45484382 0.48691785 -0.28215647 0.35937005 -0.5046629 0.4312527 -0.115125954 -0.12684934
0.4504428 0.55207926 0.08582355 0.13258868 0.37022328 -0.16786063 -0.3675403 0.2923662
-0.39546815 0.23281935 0.31455433 -0.46798888 0.2877838 -0.2288481 -0.4495377 0.3103792
0.2156272 -0.3974502 -0.013687976 -0.25825077 0.19141532 0.6558974 0.5199392 -0.11648768
0.26303023 0.28970212 -0.44598484 0.18413484 -0.24365261 -0.45190117 0.016176067 -0.21383251
0.244195 0.45965493 -0.30821657 0.43632782 0.19939214 -0.0482229 -0.2954641 0.4948439
0.6179836 0.3383699 0.4445943 0.17658056 0.54392797 0.66241527 0.39667323 0.15397045
-0.47634274 0.1579957 -0.027531803 0.2799338 0.5072006 0.3074297 0.009669612 0.47030947
-0.15843096 0.07627664 0.27941355 0.07458171 -0.0654857 0.44950998 0.039987564 0.2889763
0.30852833 0.18918653 0.16047148 0.11362241 -0.0069809556 -0.25295097 -0.48050487 0.4449064
-0.5283572 0.4340537 0.2923482 -1.0275273 0.16277069 -0.43944103 -0.3584451 0.17258477
0.087973475 -0.08463937 -0.30819213 -0.4288606 -0.29597652 0.017576694 -0.22343582 -0.032837808
-0.14180642 -0.36032003 -0.045475364 0.4041335 -0.47265482 -0.13840067 -0.331012 0.43363756
-0.5541654 -0.041345384 0.1136214 -0.84041834 -0.09364104 -0.01818639 -0.10663694 0.46148092
-0.40666676 0.22741789 -0.1880753 0.18894225 -0.4950322 0.26055402 -0.47143263 -0.26981747
-0.14560536 0.17868963 -0.112218894 0.12659833 0.068209045 0.35548213 0.45060873 -0.12779883
-0.54602706 -0.49481437 0.3044298 0.07520889 0.5756187 0.45379183 0.44971174 0.3400031
-0.23857664 -0.01778569 0.09089274 -1.0121121 -0.44558734 0.29779238 -0.39830256 0.07405794
-0.39521718 -0.2781421 -0.013881393 -0.36484897 -0.3062173 0.34621185 -0.4276232 -0.10696572
-0.26469415 -0.31604946 -0.3350116 -0.02293706 -0.41081142 0.22527403 -0.22165579 -0.10259712
-0.17891872 0.2427938 -0.13689452 0.16899669 0.26211357 0.3902996 0.080876134 0.43043125
-0.4061555 -0.628065 0.2899947 -0.19109213 -0.43216264 -0.008311391 -0.0695072 -0.33683988
-0.16174237 0.06335275 0.4718763 -0.4959677 0.16784902 0.28446537 -0.2722248 0.07781909
0.3754744 -0.2425335 -0.4838742 0.12734443 -0.1748479 0.10341708 -0.063145064 -0.08966199
0.1469269 0.21601528 -0.23226866 -0.4128295 -0.56918484 0.19827476 0.00084488094 -0.5983725
-0.4407363 0.1124959 -0.05007851 -0.09510994 0.40110958 0.08044137 0.3251821 -0.19726801
-0.24154842 0.22861803 -0.39181757 0.083872736 0.47195292 -0.3155291 -0.49350423 -0.47711653
-0.26371697 0.4108874 0.47017452 -0.4401066 -0.25998163 0.08287492 0.36156595 0.12135331
-0.2690869 0.4209271 -0.25661892 0.12604612 -0.46668035 -0.6080806 0.42291588 0.19396548
-0.5060601 -0.1036675 -0.060064286 -0.17042577 0.050816834 -0.22710443 -0.36478782 -0.16897273
-0.07186395 0.2658782 -0.22704196 -0.12622476 0.4498458 -0.18355173 -0.113723576 0.33042175
-0.3057608 -0.019357026 -0.021190584 0.11627817 -0.37778085 -0.24716195 0.19932269 -0.11089001

fc1.bias f4 [128]
00000000: 5497 ebbe d2cb a03c aef4 11bf 60de 943e
00000010: 42a7 28bf e06b cf3d 2285 d4be 53af c3bc
00000020: 2a62 e23e 6aa7 ef3d 33a9 04be 842e c53e
00000030: a38f 56bf cf5e 56bd f431 e3be 234e 42bf
00000040: 4a3b 6dbe 8b7c aebe ed80 16bf 5c62 a7be
00000050: 46af 92bf c6d0 973e 60ad 073d 644b 1dbe
00000060: 40c8 54bd 88b3 203e ffa1 36be 30e2 59bd
00000070: 9c1e 12be 8e67 df3e 78bf 4b3d de03 dfbe
00000080: c127 863e 0121 56bf a221 f33e 7aca f53e
00000090: 5f39 e3be 20a8 cb3e 9836 893d 008a c8be
000000a0: 8062 0dbc 61d6 46bf db6d 883e 769f 49be
000000b0: ce15 36bf 6af8 363e a652 cd3e 5bf2 183e
000000c0: 5015 5d3e b0ac 2e3e 02a9 e03e 9fcb 37bf
000000d0: 1097 db3e 6062 1a3d c771 2cbf 858a 10be
000000e0: 7c78 c6be de25 113d 548a 92bc e871 aa3e
000000f0: c0ae 62bd b632 d0be 98f3 7cbe e352 eabd
00000100: fabc ae3e e640 5dbe 9976 19bf 542f d33e
00000110: e4b2 743b e1a4 29bf d620 58bf 69a7 2fbe
00000120: 06e1 eebe 4340 ebbe bcdb 1bbe cdb7 14bf
00000130: bc54 26be ec90 503e d4ef d93e 9e73 abbe
00000140: c00f 0bbe cafb febe b61a e53e f01e c03e
00000150: cc46 aabe 17c8 f2bd 46c1 fb3e af0e 08bf
00000160: 6e27 e63e 1c0e 233e 8d75 e3be 5ee2 763d
00000170: 80b7 f0bb 308c af3e 2e67 abbe fd7b 9dbe
00000180: ae51 813e d129 98be ac6a 4e3e 6003 a4bc
00000190: e259 00bf 5e20 fbbe 4580 943e d8d1 92be
000001a0: 68ab 98be b172 11bf 3a53 773d 1c7d d63e
000001b0: eea2 03be 8c6a 12bf 517b fabe c825 2abe
000001c0: 39b0 b0be ac75 00bf 14f6 f63e 04c1 e93e
000001d0: 0646 d0be f6e8 d8be d2c7 ecbe d408 d83e
000001e0: 5000 b3be 00ee a63b c822 7a3d 6032 1ebd
000001f0: d056 783e a09c f4bc d8fd 51bf 0246 bebe
-0.46013892 0.01962844 -0.57013977 0.2907591 -0.65880215 0.101279974 -0.41507822 -0.023887312
0.44215518 0.117018536 -0.1295517 0.3851205 -0.8381292 -0.05233651 -0.4437405 -0.7590048
-0.23167148 -0.34079394 -0.58790475 -0.3269223 -1.1459739 0.2965147 0.033124328 -0.1536079
-0.051948786 0.15693486 -0.17835234 -0.053194225 -0.14269489 0.43633693 0.049743146 -0.43557638
0.26202205 -0.8364411 0.47486597 0.4800604 -0.44379708 0.39776707 0.06699866 -0.39167786
-0.008629441 -0.77670866 0.26646313 -0.19689736 -0.7112702 0.178682 0.40102118 0.14936201
0.21590161 0.17058063 0.43878943 -0.71795076 0.4288869 0.037691474 -0.6736111 -0.14115341
-0.38763797 0.035436504 -0.017888226 0.3329003 -0.055342436 -0.4066369 -0.24702299 -0.11441591
0.34128553 -0.21606788 -0.5994659 0.41247046 0.0037338072 -0.6626721 -0.84425104 -0.17153706
-0.46656054 -0.45947465 -0.15220541 -0.5809296 -0.16243261 0.20367783 0.42565787 -0.33486646
-0.13580227 -0.49801475 0.4474694 0.37523603 -0.3325714 -0.1185457 0.49170893 -0.53147405
0.44951957 0.15923351 -0.44425622 0.060274474 -0.0073460937 0.34286642 -0.33477157 -0.30758658
0.2525763 -0.29719403 0.2015788 -0.02002114 -0.5013715 -0.49048132 0.29004112 -0.28675723
-0.29818273 -0.5681563 0.060382105 0.41892326 -0.12855121 -0.5719383 -0.48922208 -0.16615975
-0.34509447 -0.50179553 0.48234618 0.45655072 -0.40678424 -0.42365235 -0.462462 0.42194235
-0.34961176 0.00509429 0.061068326 -0.03862226 0.24251866 -0.02985984 -0.8202796 -0.37162787

fc2.weight f4 [128, 128]
00000000: 694e 35bd 9ce9 3dbe 34cd 3cbe 2806 26bd
00000010: 143c 03bd c5ac 853d d78d c9bd b797 8abd
00000020: c6a6 6cbd 286e 38be 0852 4ebc 2cad f1bc
00000030: fe37 ddbd 084b 5dbd 68b9 043d 120d 04bd
00000040: 5790 e2bd 5c89 d3bd a56e bcbd a030 45bc
00000050: 8896 1abe 05de 59bd 4fc2 4abd 0ea2 393d
00000060: a1ec 81bd 9070 903b 6648 67bd fd9f 0ebd
00000070: d2be 7e3d 809c 743b 8619 2ebe 4c02 74bd
00000080: 6df3 c2bd e276 10be 6413 5cbd 3c6f adbc
00000090: 128a 00be dcc6 883c 30ba 573c 6a71 1e3d
000000a0: e3c8 85bd ae81 9ebd b0f5 13bd 7490 c9bd
000000b0: 18b7 18bd 8086 c4bc a038 66bb a404 2dbe
000000c0: ffe5 87bd 48b3 0cbd 2005 54bc fcf0 02be
000000d0: bc9d 123d 3159 68bd 4cee 7ebd 1315 a1bd
000000e0: 0fd1 66bd 81f2 86bd 9491 dbbc 6097 61bd
000000f0: 521d 173d a111 823d b00c 45bd 966e 2dbe
00000100: f2e4 493d be16 0bbe 0a97 f3bd 1530 aa3d
00000110: 237d 3fbe ae63 2abe 1080 09be 3d6e 37be
00000120: ac0c 23bd f7ab ecbd 227b 273d f852 aabd
00000130: c494 93bd 84e3 103d 8426 cabc 2ad5 e1bd
00000140: 0820 30bd 9c01 02bd 907c 70bd 00ee 57b9
00000150: 4958 a4bd e012 12be 00b6 b9ba 946c 0bbe
00000160: 68a4 f33c 6c7a 0f3d 9a2e 61bd dce6 f6bc
00000170: 88fc 103d 8eec 573d b080 e6bc 1c01 18be
00000180: aadf 42bd 92a2 3ebe b42b 0abd 0aa8 15bd
00000190: 74e0 cbbd 8f28 05bd 7273 10be d45b 82bd
000001a0: 789e c83c 3cfa 37be 0e90 20bd 4041 46bb
000001b0: 5c54 54bd d9a7 2cbe 4469 4dbd f8b7 d63c
000001c0: c3e8 babd 89a2 f5bd 6ebf 6dbd 5e67 29bd
000001d0: bf9d bebd 28b2 d7bd 04ad 1ebe f90c b03d
000001e0: b442 4cbd feab 1b3d 470b 03be f5cd 41bd
000001f0: 1adc 633d 5716 1bbe 909b 5fbc c8ae 8dbc
00000200: 086b 55bc 289e 183c 3098 983b b08d 54bd
00000210: d6ea 4d3d c8c7 a8bc 087a 89bc 8f9b 863d
00000220: c38e a63d 209e 70bd a47c 83bc 8677 d7bc
00000230: 2e67 4b3d ec3c fcbc 60cc 973c 0072 2a39
00000240: 1bdd 953d 00ce 4abc da52 5a3d 2f8d a2bd
00000250: c034 32bd 50a9 713c 5909 a5bd 1026 703c
00000260: 6ff5 81bd 776a 823d cde6 ab3d 896c 993d
00000270: d67f 7a3d 63b2 853d d0af 42bc 98a4 b3bc
00000280: e4aa acbd b937 36bd 96dc 543d 9e1d 743d
00000290: bf57 2dbd 00b3 8dbc f869 52bc 9a8c 7fbd
000002a0: 4fb1 54bd 4083 ce3a a4ef a4bc 3c21 cfbc
000002b0: cea5 233d 9f64 56bd ec17 4cbd cde3 b23d
000002c0: b74d 8e3d 4cc3 9fbd 76f9 3b3d 3629 5dbd
000002d0: 6f5c a63d 583c 9bbd ae07 8ebd 6e5e 533d
000002e0: e5e0 a63d 37ba 7ebd 8820 b33c c01f 55bd
000002f0: f7c6 95bd eaff 98bd aa17 3a3d e352 a3bd
00000300: e029 cf3b 926c 1b3d 5314 963d e9f6 a03d
00000310: 942e e03c dc8c 50bd 2980 983d 2921 30bd
00000320: 5424 c93c b881 e5bc 90ce 86bc b0d7 a2bd
00000330: 57a6 b43d c871 c9bc d417 dd3c 442f 50bd
00000340: 20cb b73c 6f99 9a3d b810 aabc ea33 89bd
00000350: 1928 17bd 7003 a93b d7e7 a9bd 9a13 9bbd
00000360: 9559 a73d 140b b03c 13f5 8ebd 2821 523c
00000370: da9c 6abd 6333 a23d 5799 853d b851 153c
00000380: 04ee cdbc a9f9 91bd c97e 28bd 3bb6 8b3d
00000390: 8c32 fb3c 6699 643d ba8e 8cbd 3be2 9b3d
000003a0: 0a1b 573d ee7d 523d 40bf fa3b 9c2f acbd
000003b0: 0060 113d 88c4 8bbd 1fb4 a6bd 0abf 183d
000003c0: 2b03 14bd 4700 2abd d65f 0b3d 7db8 9e3d
000003d0: d867 13bc 2242 423d 668d b4bd 80d4 76bb
000003e0: 2300 afbd 8802 61bd 1bbb 8abd 9b6a 85bd
000003f0: af44 4dbd b058 9c3b 2615 91bd 805b ddba
-0.04426423 -0.18546146 -0.18437654 -0.040533215 -0.032039717 0.06527094 -0.09841507 -0.067672186
-0.057776235 -0.18010771 -0.0125928 -0.02950152 -0.10801695 -0.054026634 0.03240338 -0.032239027
-0.11062687 -0.103289336 -0.09200791 -0.012035519 -0.15096486 -0.05319025 -0.049501713 0.045320563
-0.063439615 0.0044079497 -0.05646553 -0.034820545 0.0621937 0.0037324727 -0.17001924 -0.059572503
-0.09519086 -0.1410785 -0.05372943 -0.021171205 -0.1255267 0.016696386 0.013166949 0.03868238
-0.06532457 -0.07739578 -0.036122978 -0.09842005 -0.037283987 -0.023989916 -0.0035128966 -0.16896302
-0.06635665 -0.034350663 -0.012940675 -0.1278724 0.03579496 -0.056725685 -0.062238976 -0.07865348
-0.056351718 -0.06589223 -0.026802815 -0.055076003 0.036893196 0.06351019 -0.048107803 -0.16936716
0.049290605 -0.13582894 -0.11894043 0.08309952 -0.1870008 -0.16639587 -0.13427758 -0.17913146
-0.039807007 -0.11556237 0.040888913 -0.08316606 -0.07206109 0.035373226 -0.024676569 -0.11026986
-0.042999297 -0.031739816 -0.058712542 -0.0002059266 -0.080246516 -0.14265013 -0.001416862 -0.13615638
0.029741481 0.03502886 -0.054976083 -0.03013938 0.035397083 0.05271583 -0.028137535 -0.14844173
-0.047576584 -0.18616703 -0.033733085 -0.036537208 -0.099549204 -0.032509383 -0.14106539 -0.06365171
0.024489626 -0.1796655 -0.03919988 -0.0030251294 -0.051838264 -0.16860904 -0.050149217 0.02621077
-0.09126427 -0.11993892 -0.05804389 -0.041358344 -0.093074314 -0.105320275 -0.15495688 0.08596224
-0.0498683 0.03800582 -0.1279727 -0.047315557 0.055629827 -0.1514524 -0.013647929 -0.017295256
-0.0130260065 0.009315051 0.004656814 -0.051892936 0.050272785 -0.020603076 -0.016781822 0.06572639
0.081326984 -0.05874455 -0.016050644 -0.02630211 0.049658947 -0.030790769 0.01853007 0.00016254932
0.07317563 -0.012378216 0.05330167 -0.07937085 -0.043507338 0.01474984 -0.080584235 0.014657512
-0.06345641 0.06367963 0.08393631 0.074914046 0.06115707 0.06528165 -0.011882737 -0.02192907
-0.08431032 -0.044486735 0.05196818 0.059598558 -0.04232001 -0.017297268 -0.012842648 -0.062389947
-0.051926907 0.0015755668 -0.0201338 -0.025284402 0.039953046 -0.052342054 -0.0498275 0.08734856
0.06948417 -0.07800922 0.0458922 -0.05399438 0.08123099 -0.07579869 -0.069350585 0.051603727
0.08148364 -0.062189307 0.021866098 -0.052032232 -0.0731334 -0.07470687 0.045432724 -0.07974794
0.0063221306 0.037945338 0.07328095 0.078595944 0.02736596 -0.050915584 0.074463196 -0.043000374
0.024553455 -0.028015956 -0.016455919 -0.079512954 0.08820789 -0.024590388 0.026988901 -0.050826326
0.022435725 0.075487964 -0.020759925 -0.06699355 -0.036903474 0.0051578805 -0.08296173 -0.07572098
0.08171383 0.021489657 -0.06980338 0.012825288 -0.05727849 0.079199575 0.06523388 0.009113722
-0.025137909 -0.07127697 -0.041136537 0.06821867 0.030663751 0.055810355 -0.068631604 0.076115094
0.05251602 0.051389627 0.0076521933 -0.08407518 0.035491943 -0.06824595 -0.08139824 0.037291564
-0.036135834 -0.04150417 0.034026943 0.07750032 -0.008996926 0.04742635 -0.08816032 -0.003766328
-0.08544948 -0.054934055 -0.06773969 -0.06514474 -0.05011433 0.0047713146 -0.07084112 -0.0016888231

fc2.bias f4 [128]
00000000: df1b 0abe 5095 d53c 2413 66be 248a d5bd
00000010: 5043 23be 2c12 7d3e e038 a0bd e3f7 9f3d
00000020: e6e7 473d 0056 59bc 93c4 82bd ab49 923d
00000030: 2b1c 94be 0729 973d 90fc e4bb e16f 8c3d
00000040: 7abc 87bd 4df5 463d a946 61bd a3dd 8b3d
00000050: 0396 953d a240 5bbd 50bd 32be 5784 393e
00000060: a42f 7abd bcef 043e e3cb 8ebd c50e 3dbe
00000070: 40db 7dbe b513 13be 070c 14be 749f 24bd
00000080: ce3e b13d f436 09be 3bcd fcbd 2b7f 41be
00000090: 4c55 96bd 14d4 283e 173e a7bd 2627 4d3d
000000a0: ce81 843d 38a3 36be a2f5 743d f780 823d
000000b0: 4639 143d 6e86 e5bc e03f b23b 7c24 0e3e
000000c0: c897 97bc 2600 453d 5e87 5d3d ea1a 74bd
000000d0: c292 263d 2052 673b 9e47 90be d36e 4bbd
000000e0: 886e 0f3c 2213 57bd 687f 57bc ca0d 333d
000000f0: 39f7 b1be 036a 83be d488 d53d 1ad8 30bd
00000100: e0ee 25bd e62b 26bd 4e01 00bf 6312 acbd
00000110: da66 4b3d 00ea b73c 8abf 22be 4dd1 92bd
00000120: 7035 44bc fbb1 9abd 7730 833d 458c 81bd
00000130: 2afe 85bd aea0 b6bd ed77 b6be 80e2 d3ba
00000140: 577d 30be ef4b d3bd b0ce 22be 401c 2d3e
00000150: 98c1 63bd ea1d 1fbe 85b4 62bd 3998 223d
00000160: 1796 e2be 3c7c f6bd d614 2cbd c953 4bbe
00000170: 7cf5 e93c 4621 bdbd 90cb dbbd 3709 5c3d
00000180: 604b 603b 24ee a4bc 68f2 09bc cbaf 9fbe
00000190: eab3 203d 4af8 29bd 802b 8ebc d7b1 2fbe
000001a0: b18b 9a3d 78e6 52bd 58d7 babc 62cf 893d
000001b0: 682b abbd b2da 0fbd 2c5b 30be 0976 623d
000001c0: d87b 6dbc 1ac2 20be 03c1 a3bd 9582 81bd
000001d0: c92f 6a3d c8d7 a7bc df75 13be 95cd acbd
000001e0: 63f3 cc3d 6414 30bd 2294 f5bd 2571 82bd
000001f0: 8c4b 00be edda 8b3d 3e60 54bd f535 d4be
-0.13487194 0.026072174 -0.22468239 -0.10426739 -0.15943646 0.24713963 -0.07823348 0.078109525
0.04880514 -0.013265133 -0.0638515 0.07142957 -0.2892774 0.07380872 -0.0069881156 0.06857277
-0.06627746 0.04857378 -0.054999027 0.06829383 0.07304003 -0.053528436 -0.1745503 0.1811689
-0.06108059 0.12982076 -0.06972482 -0.18462665 -0.24790668 -0.14362986 -0.14457713 -0.04019113
0.08654557 -0.13399869 -0.12343832 -0.18896167 -0.07340488 0.16487151 -0.081661396 0.050086163
0.06470071 -0.178357 0.059804566 0.06372254 0.036187433 -0.028018203 0.0054397434 0.13881105
-0.018504992 0.048095845 0.054084174 -0.05959598 0.040667303 0.0035296753 -0.2817964 -0.049666237
0.00875438 -0.05250848 -0.013152935 0.043714322 -0.34758928 -0.25666818 0.104264885 -0.04317484
-0.040511012 -0.04056921 -0.5000199 -0.084019445 0.049658634 0.022450447 -0.15893379 -0.07168827
-0.011975631 -0.07553478 0.06405728 -0.063255824 -0.065426186 -0.08917366 -0.3563837 -0.0016165525
-0.17235313 -0.103172176 -0.15899158 0.16905308 -0.055604547 -0.15538755 -0.055347938 0.039695952
-0.44255134 -0.120354146 -0.04201206 -0.1985618 0.028559439 -0.09234862 -0.10732186 0.053719725
0.0034224615 -0.020133086 -0.008419611 -0.31188807 0.03923408 -0.041496553 -0.017354727 -0.17157684
0.07546175 -0.051489323 -0.022807762 0.06729008 -0.083578885 -0.035120673 -0.1722228 0.05528835
-0.014494859 -0.15699044 -0.079957984 -0.06323735 0.057174478 -0.020488635 -0.14400433 -0.08437649
0.1000736 -0.042988196 -0.11991145 -0.06369237 -0.12528819 0.06828866 -0.051849596 -0.41447416

fc3.weight f4 [3, 128]
00000000: 184f 80bd b247 783d cefa 293e ec76 09be
00000010: 7a68 243e 7bc2 7b3e 17db 323d 3085 793c
00000020: 946a c1bc 8baf 8e3d 2a9c 4d3e eea6 53bd
00000030: 554b 403e 9785 00bd 200e 23bd e11b a13d
00000040: 1194 86bd 32c2 10be 606d 26bd 108c 76bd
00000050: f05b a23b 6530 7fbc 003f 0c3b 9d59 763e
00000060: c0f8 54bc 945f 603e 6b1c b0bd 6cd2 c2bc
00000070: d2f3 673e 8916 a9bd 8ba7 b7bd 268f 9ebd
00000080: 12c4 b43e 68ad 85bd 2e75 bfbd 3c61 163e
00000090: ee23 4a3d 5eeb be3e 5332 5bbd aad2 87bd
000000a0: 0aa8 b9bc bc53 1abd 80c4 00bd 956d 93bd
000000b0: bd58 84bd b0a2 42bc 54df 78bd 3ee1 debd
000000c0: d45d 81bd 07cb 70bd 9d14 7dbd 30b7 c13c
000000d0: 194b 853d e1f2 a2bd 283c f33d bacd 1a3d
000000e0: 1ab2 173d f500 efbd 7963 d0bd b23a 733d
000000f0: 2cb9 ef3d 94a6 3e3e 79fa 793e 6212 f8bc
00000100: a8f4 3d3d 4048 63bc 7e5b 513e 59b5 92bd
00000110: c97b 80bd c210 9c3e d827 c7bc 1653 923e
00000120: a4a5 73bd 4688 853e 20ad 6fbc 100a 69bd
00000130: 459d 5c3e fce0 0f3c c296 f33d 4496 cebc
00000140: 6aea 813e d204 48bd 188d b8bd f21e 0ebe
00000150: 9f81 01be 8d7d 373d 10ed 033c 5305 883d
00000160: d54a 2c3e dc25 53bd b56a c3bd e87e 3bbd
00000170: 52f7 213d 9b7d 02bd 0748 58bd 529c ee3c
00000180: 6252 64bd 017a b7bd 61c0 a4bd cba9 0a3e
00000190: b274 363d 0252 37be 4c5c 03be 0c61 a43e
000001a0: 030a a93d e877 52bc 5821 d8bc 2e65 243e
000001b0: 7c8e b13c 8872 b83c c1ba d73d a0b7 4f3e
000001c0: 6434 21bd dcc5 3fbd f9b4 10be da8f 17be
000001d0: d477 a53e f08d 9fbd b81f 0fbd b92e f83d
000001e0: 66db da3d 52dc f2bd 10c3 01bd 6416 2bbd
000001f0: cff8 37bc d456 b43e 0c01 47bd 0e30 853e
00000200: ce28 a1bd 0f99 983d 61bc 96bd 1e23 9c3d
00000210: 8624 873e 189e 9b3e ee0b 373e 40a1 5ebc
00000220: 1d0c 9cbd ad3c 8c3d 0ceb 693b 7594 29bd
00000230: e594 8e3e a00b 563b 3807 043c 969a dcbc
00000240: e80f 2bbe 6c3f bcbc 044e 9f3c 1031 f23c
00000250: 801a dfba 85b6 b03d 0926 aa3d 477c 833e
00000260: a814 86bc bbc3 6b3e f910 b53d df45 ca3d
00000270: cae5 433e 7c3d 68bd 09dd 8f3d 6d14 8e3e
00000280: 627e 083e 562d c0bd 7ea8 143e ceee 9d3e
00000290: cd47 a73d f2be 563e a072 4dbb 6aab 91bd
000002a0: 1619 3e3d 30cf 1c3e 02f9 383e 64ff b53c
000002b0: e88f 85bc 7e2f 6dbd 96dc 293d c136 0f3e
000002c0: 017d efbd 9852 773e 4c54 9bbd 80c5 323b
000002d0: c021 363b db06 a53d e038 ac3e 20e4 0bbb
000002e0: 87d8 ae3d f8ea 763c 8e66 f23d ccb3 063d
000002f0: c69b 873e 61be 9b3e b4b4 8e3e 21ad a0bd
00000300: 1509 a13d 2057 c33b a84c 813e 2da0 973d
00000310: 8312 93bd 2a9d b93d a1fb bfbd 01ed 473e
00000320: e4ba 193e 45d7 8dbd 7c27 c33c 588f 91bd
00000330: f613 b03e 40d3 f9bb 79e4 9c3e 8820 90bd
00000340: a88c 6b3e 700d 13bd fb22 013e 90b2 52bc
00000350: bea5 4cbd 88f2 b93c 6c69 903d 2db3 1f3e
00000360: 2cc3 1d3e 869c 273d 4ca5 f83d 4b02 d93d
00000370: 660d 293d 609e aabb 58d0 a43c c84e d5bc
00000380: aa43 1a3d 08e4 a2bd 62d9 6c3d f12d 9e3e
00000390: 63cc 90bd 3c84 373d c6ea 203e 6179 b63d
000003a0: fda9 ad3d 43f8 8b3d 7a1c 8dbd 6137 7b3e
000003b0: a6b9 31bd 22f5 61bd 8cc9 833c fdee 7b3e
000003c0: 71ea 33be 4409 04bd 076a c8bd c297 86bd
000003d0: 535c 333e 80fc 053c e6bc 093e d46d e03c
000003e0: e311 e43d 40e9 913d 2ab4 903d 1ada 1ebe
000003f0: d858 d63b f84b 0e3e 24b0 3ebd 8600 79bd
-0.06265086 0.06061525 0.1659958 -0.13424271 0.1605548 0.24585907 0.04366597 0.015229508
-0.02361039 0.06967076 0.20079103 -0.05167287 0.18778737 -0.0313774 -0.039808393 0.078666456
-0.0657121 -0.1413658 -0.040631652 -0.060192168 0.0049548075 -0.015575503 0.0021399856 0.24057622
-0.01299876 0.2191146 -0.0859917 -0.023781978 0.22651604 -0.08256251 -0.08967503 -0.07742147
0.3530584 -0.06527215 -0.09348522 0.1468553 0.04935067 0.37288946 -0.05351479 -0.06631978
-0.022663135 -0.03767751 -0.031437397 -0.071986355 -0.06462238 -0.011879608 -0.060759857 -0.10882805
-0.063167244 -0.058787372 -0.061787236 0.02364692 0.06508464 -0.07956482 0.11876708 0.037793852
0.037035085 -0.116701044 -0.10175223 0.059382148 0.117052406 0.18618232 0.24411954 -0.030282203
0.0463759 -0.013872206 0.20445058 -0.071634956 -0.0627361 0.30481535 -0.024310991 0.28579015
-0.05948414 0.2608053 -0.014628679 -0.056894362 0.21544369 0.008781668 0.11893989 -0.025218137
0.25374156 -0.048832722 -0.090112865 -0.13878992 -0.12647103 0.04479747 0.008052126 0.066416405
0.16825421 -0.051549777 -0.09541837 -0.045775324 0.039542504 -0.031858068 -0.052803066 0.029127274
-0.05574263 -0.08958817 -0.08044506 0.13541333 0.044544883 -0.17902377 -0.12828177 0.3210529
0.08253863 -0.012845971 -0.026383087 0.16054222 0.021674387 0.02251555 0.10533667 0.20284891
-0.039356604 -0.046819553 -0.14131536 -0.14800969 0.32317984 -0.07790744 -0.03494236 0.12118287
0.10686378 -0.11858429 -0.031680167 -0.0417694 -0.011228754 0.35222495 -0.048584983 0.26013225
-0.07869111 0.074510686 -0.07360149 0.076238856 0.26395053 0.30394053 0.17875645 -0.01358825
-0.07619498 0.068475105 0.0035693077 -0.041401345 0.27847973 0.0032660738 0.008058362 -0.026929181
-0.16705287 -0.02297946 0.01944638 0.02956441 -0.0017021447 0.08628563 0.08308036 0.25680754
-0.016367272 0.23023884 0.08841128 0.09876608 0.19130626 -0.05669926 0.07024581 0.2774996
0.13329461 -0.09383647 0.145174 0.30846256 0.08167992 0.20971277 -0.003134884 -0.07112773
0.046410643 0.15313411 0.18063739 0.022216506 -0.016303971 -0.05790662 0.041470133 0.1398573
-0.116937645 0.24152601 -0.07584438 0.0027278364 0.0027791113 0.08057948 0.33637142 -0.002134569
0.08537393 0.015070669 0.11835967 0.03288631 0.26486033 0.30418685 0.2787224 -0.07845522
0.078630604 0.005961314 0.25253797 0.07403598 -0.07181265 0.0906318 -0.09374166 0.19524004
0.150127 -0.06925825 0.023822539 -0.07107419 0.3439023 -0.00762406 0.3064306 -0.07037455
0.23002875 -0.035901487 0.12611 -0.012859955 -0.04996275 0.022698656 0.070513576 0.15595694
0.15406483 0.040920757 0.12140903 0.105961405 0.041272543 -0.005206868 0.020118877 -0.026038542
0.037662186 -0.0795365 0.0578245 0.30894426 -0.07070234 0.044803843 0.15714559 0.0890987
0.08479688 0.068344615 -0.06890197 0.24532844 -0.04338994 -0.055165417 0.016087316 0.24602886
-0.17569901 -0.0322354 -0.09785848 -0.06571914 0.17515688 0.0081778765 0.13450965 0.02739612
0.11136224 0.07124567 0.070656136 -0.15512887 0.0065413527 0.13896167 -0.0465547 -0.060791515

fc3.bias f4 [3]
00000000: d608 9b3e 0cf3 823e b25a 893d
0.3028018 0.25576055 0.06706752
