models/food_monitoring_model_cycle_1.pth (torch, 73060 bytes, 6 tensors)

fc1.weight f4 [128, 4]
000000 30 1c 20 3d 48 25 e8 3d 50 3d 08 be 00 d9 6e bd
       0.03908938 0.11335236 -0.13304639 -0.058312416
000010 8e 57 12 3f f8 ac 53 3f 7f 16 c5 3e d4 19 17 3f
       0.5716485 0.82685804 0.38493726 0.59023786
000020 65 80 62 3e 80 87 0d 3f 37 7b 61 3e 61 85 d4 be
       0.22119291 0.5528488 0.22019659 -0.4150801
000030 9a 24 f0 3e cc 38 66 3e d0 27 be be a2 67 f2 3e
       0.46902925 0.22482604 -0.3713975 0.4734469
000040 68 1b 3f be c7 0f 04 bf 60 99 6b 3c 2a a3 f8 bd
       -0.18662798 -0.51586574 0.014379829 -0.12140496
000050 46 ff f4 be 70 7b a0 3e 0e ec ad be da 53 cf be
       -0.47851008 0.31344175 -0.33969158 -0.4049366
000060 a3 c3 aa bc 28 fd 23 bf 87 21 87 3e f3 56 ac bf
       -0.02084524 -0.6405816 0.26392767 -1.3464035
000070 54 d2 32 be fe 24 8c be f0 d4 af bd 04 ea be 3e
       -0.17463046 -0.27371973 -0.085855365 0.37287915
000080 ec f9 2f 3f d7 a9 05 3e 75 e4 b2 3d 84 fc b8 be
       0.68740726 0.1305307 0.08734981 -0.36130154
000090 68 9d 52 3e e0 d5 49 bd 3e c8 bd be 68 7b 48 3e
       0.20567858 -0.049276233 -0.37066835 0.19578326
0000a0 70 0a c5 bd a0 15 c6 bd e8 74 27 be 24 67 c0 3e
       -0.096211314 -0.096720934 -0.1635319 0.3757869
0000b0 5c 7b 80 be 5b e3 25 be d5 bd ca 3c 26 89 49 3e
       -0.25094116 -0.1620001 0.024748722 0.19681224
0000c0 d4 51 02 be b0 fa fa be d8 63 1f be 54 eb 62 be
       -0.12726527 -0.49019384 -0.15565431 -0.22160083
0000d0 92 da bc 3e 10 f4 8b be 00 ba c5 3b d2 8e c1 3e
       0.36885506 -0.27334642 0.006034136 0.37804276
0000e0 18 7f c2 3d 00 49 e6 3c 10 7a 3a bd d2 eb cb be
       0.094968975 0.028110981 -0.045526564 -0.39828354
0000f0 0e 98 aa 3e e4 62 37 3e a8 c5 d5 be a8 1f eb be
       0.33319134 0.17908818 -0.41752362 -0.4592259
000100 71 7a 20 3f 68 3f 5c 3f f0 9e 22 3e 40 d8 1a 3f
       0.6268683 0.8603425 0.15880942 0.6048622
000110 cc f0 55 be 34 4c b0 be 9a c0 d4 be 86 54 e6 be
       -0.20892638 -0.34433138 -0.41553193 -0.4498636
000120 c4 96 01 3f 24 77 21 3f 16 5c 9d bc 01 0c 87 3f
       0.50620675 0.6307242 -0.019208949 1.0550538
000130 da eb 73 3f ac a4 de bc 29 0f 26 bc b2 61 91 3e
       0.95281756 -0.027178131 -0.01013545 0.28394848
000140 78 51 97 bd d8 3e 24 be 3e dd b0 be 88 fb b6 be
       -0.07388586 -0.16039598 -0.34543794 -0.35738778
000150 68 96 0f 3e f4 a0 3e be f0 58 a0 be 22 15 85 be
       0.14022219 -0.18616086 -0.31317854 -0.25992686
000160 4c e0 84 3e 6f 9d 38 3f 4f 6c de 3e 68 11 5a 3f
       0.25952375 0.72115225 0.43442008 0.8518281
000170 16 65 a9 be 4e 9d b6 be d8 a4 61 3e 8f 18 47 bf
       -0.33084935 -0.3566689 0.22035539 -0.7777185
000180 ce a0 a4 3e ce 18 bb 3e dc da 19 bd fb 26 23 3f
       0.32153934 0.36542362 -0.037562236 0.63731354
000190 dd b2 78 3f 5e a5 2b 3f aa a4 99 3e 55 29 5a 3f
       0.97147924 0.67049205 0.3000844 0.8521932
0001a0 d5 2f 34 3f 4f 12 54 3f 9c 53 92 3e 7b 75 72 3e
       0.70385486 0.82840437 0.28579414 0.23677628
0001b0 60 36 0a 3e 38 9a 34 3e 6a e7 fd be c0 2d aa 3e
       0.13497305 0.17636955 -0.49590617 0.3323803
0001c0 67 bf 7f 3f 49 95 60 3f eb 19 94 3e d1 d9 26 3f
       0.9990143 0.8772779 0.28926024 0.6517611
0001d0 88 92 b2 3e a4 a6 2c be ce a4 ac be 40 39 b7 be
       0.3487742 -0.16860443 -0.33719486 -0.35785866
0001e0 b1 12 98 be 23 5e 62 be d0 68 07 3d ab eb a6 be
       -0.2970176 -0.22106223 0.03305894 -0.32601675
0001f0 38 b3 ee be 60 ce a3 3c 7e 94 ce be 10 c2 cd be
       -0.46621108 0.019995868 -0.40347666 -0.4018712
000200 47 01 07 bd a4 90 f7 3d 60 b5 56 bd 85 53 a0 be
       -0.032960203 0.12088135 -0.052419066 -0.3131372
000210 e4 1b 22 be 62 e3 c4 3e bc db 58 be 70 44 33 be
       -0.15830952 0.3845473 -0.21177572 -0.17506576
000220 64 70 ac 3e 20 f8 4c 3e c8 df bc be 80 77 81 3c
       0.33679497 0.20016527 -0.36889482 0.015804052
000230 78 3a 49 be 78 29 98 be 48 b5 98 bd 48 f6 1c be
       -0.1965121 -0.29719138 -0.07456452 -0.15328324
000240 1d 2d 2f 3f 1d 70 16 3f 34 fe cf 3e d0 7a a6 3e
       0.6842821 0.5876482 0.4062363 0.32515574
000250 ed c9 35 3f 99 de 51 3e d7 f4 2e 3e b4 15 b2 bd
       0.7101124 0.2049507 0.17085586 -0.08695546
000260 ae d8 99 be 02 f3 f3 3e d0 7e fc be 14 b7 e7 be
       -0.30048126 0.47646338 -0.493155 -0.45256865
000270 d0 bd 39 be 2c 2d 33 be 00 7b 0a bb bc 2a dd be
       -0.18138814 -0.174977 -0.0021130443 -0.43196666
000280 c1 a0 1a 3f 0b bc 0b 3f 41 68 f1 3d d9 e1 c2 3e
       0.6040154 0.54583806 0.11787463 0.38062933
000290 34 82 89 3e f0 d4 45 be 80 d8 ab be ae 60 e2 3e
       0.2685715 -0.1931951 -0.33563614 0.44214386
0002a0 95 d9 f9 3e ac 91 fe 3e 24 1b 05 3f 7f 7b fa 3e
       0.48798814 0.49720514 0.5199454 0.48922345
0002b0 5a f3 52 3f 09 bf 4c 3f da e7 0c 3f 27 12 dc 3e
       0.82402575 0.79978997 0.5504128 0.429826
0002c0 f8 03 3d be b0 67 9c be 42 27 bb be d8 cb ee bd
       -0.18458545 -0.30547857 -0.3655339 -0.11659974
0002d0 85 b7 b1 be b9 c5 a7 be 26 f3 33 3d 0b 94 86 3e
       -0.34710327 -0.32768038 0.043933056 0.26284823
0002e0 55 79 c1 3d 68 12 66 3f 9a fc d8 3e 2a 7e 43 bc
       0.094469704 0.89871836 0.4238022 -0.011931935
0002f0 18 06 b2 3d a2 d6 fb 3e 0c 6b 97 be 10 a2 1e 3e
       0.086925685 0.4918719 -0.29573858 0.1549151
000300 dd be 91 be e3 67 b0 be ce 45 2e 3e c9 59 24 bf
       -0.2846593 -0.3445426 0.17018816 -0.641995
000310 66 79 1f 3d f8 1a 38 be 1e fd a1 bc 64 60 bb be
       0.038934134 -0.17979038 -0.019774016 -0.36596978
000320 ec 44 0f be b0 2b 4f 3d 10 78 71 be a0 89 40 3e
       -0.13991135 0.050578773 -0.23580956 0.188025
000330 48 8c 00 be c3 ae 35 3f d0 d4 b9 bb 83 fc 3d 3f
       -0.12553513 0.7096979 -0.005671121 0.7421343
000340 52 17 c1 be cc 5e 65 be 00 66 4e bc a2 72 d5 3e
       -0.37713104 -0.22399443 -0.012597561 0.4168902
000350 8a 4f d6 be d8 d3 b0 bd e0 57 29 bd 5a 73 b9 be
       -0.41857558 -0.08634156 -0.04134357 -0.3622082
000360 c3 18 39 bf 41 6d 15 3d bf 2f e3 3c ee af 5b be
       -0.7230341 0.036481146 0.027732728 -0.2145383
000370 a5 91 5e 3d 41 63 ba 3d d3 df 68 3e ee ce 69 bf
       0.054338116 0.091009624 0.22741632 -0.91331375
000380 52 bc d2 be 7a c1 ee be b6 ca f6 be 98 04 8c 3d
       -0.41159302 -0.46631986 -0.4820153 0.06836814
000390 67 2a 1e bf 3e 5c e7 3d 8a 29 53 bd 99 67 b1 be
       -0.6178345 0.11296891 -0.051553287 -0.3464935
0003a0 72 a2 16 bf 60 9d 55 3e 0c 21 ac bc 5a 1e 7d 3e
       -0.5884162 0.20860815 -0.021011852 0.2471861
0003b0 c6 ee 0a 3f 87 d0 98 3e 85 40 e5 3e 69 02 52 3d
       0.5427059 0.29846594 0.44775787 0.05127183
0003c0 fa b2 bc be a0 b9 c5 3d e0 67 f4 bd 60 94 12 bd
       -0.36855298 0.09654546 -0.11933875 -0.035786033
0003d0 84 cb 43 be 36 4e b4 3e 54 59 a7 be 58 c2 bc be
       -0.19120604 0.3521592 -0.3268534 -0.36867023
0003e0 90 2b eb 3e 20 d7 ff 3c f2 c2 e7 be ea ce a8 3e
       0.45931673 0.03123051 -0.4526592 0.32970363
0003f0 26 a0 a8 be d2 ef e4 be 7a 71 d9 be 64 b0 b4 be
       -0.32934684 -0.44714218 -0.42469388 -0.35290825

fc1.bias f4 [128]
000000 f8 6c ff be e0 f4 07 3f 46 54 0b bf 62 74 cd be
       -0.49887824 0.53108025 -0.54425466 -0.40127856
000010 8a f8 1b be 68 4a 54 be f6 21 a9 bf 4a 98 e8 be
       -0.15231529 -0.20731509 -1.3213489 -0.45428687
000020 cd 92 a6 be 14 f6 8d 3e 24 fd 56 3e ed 97 df be
       -0.32533875 0.27726805 0.20995003 -0.43670598
000030 14 e4 a5 3e 14 97 6a 3e a8 17 03 be d0 cf 96 be
       0.32400572 0.22909194 -0.12801993 -0.29455423
000040 62 01 8b 3f 9c de 81 3e a4 19 23 3f 90 bf 9c 3f
       1.0859797 0.2536515 0.63711 1.224596
000050 cc 81 3b be 38 d6 91 3d e4 cc de 3e 32 7c 5e bf
       -0.18311232 0.07120937 0.43515694 -0.86908257
000060 b4 e2 48 3f 7b 63 cb 3e 7a b7 50 3f ae e7 81 3e
       0.7847092 0.39724335 0.81529963 0.2537207
000070 b0 e2 5c 3f 30 4e c2 3d e5 60 8e be 42 ec fa 3e
       0.862834 0.09487569 -0.278083 0.49008375
000080 9a 90 f7 be c4 fd df be a0 f9 90 3e d8 3d cb 3e
       -0.4835251 -0.43748295 0.2831545 0.3969562
000090 2f 37 82 3e 1f 6f 55 3e b2 58 b6 3e 02 84 cb be
       0.25432727 0.2084317 0.35614544 -0.3974915
0000a0 f2 15 50 3f 40 99 5d bc 7a e9 eb 3d 71 01 56 3e
       0.81283486 -0.013525307 0.115191415 0.20898987
0000b0 a8 14 76 3e 21 9c 16 bf 29 14 52 3f 6c 21 c6 3e
       0.24031317 -0.58831984 0.8206201 0.38697374
0000c0 b4 30 c5 be 40 18 d5 be 10 1a fb 3e 9b 3e 8b 3f
       -0.3851372 -0.41620064 0.49043322 1.0878481
0000d0 40 dc 73 bd 8a b7 f8 3e 2c 64 c9 3d 6c 63 27 bf
       -0.05953622 0.4857753 0.098335594 -0.6538608
0000e0 48 2d 03 be ae 74 71 be 82 b7 d6 be f2 5b ac 3d
       -0.12810242 -0.23579666 -0.4193688 0.08415975
0000f0 32 ab d9 be 68 3a 6f 3e 40 75 9c 3d 54 31 05 be
       -0.42513424 0.23362124 0.07639551 -0.13007098
000100 e4 f5 52 3e 7b 2c b3 be 20 52 03 bd e5 b6 e2 be
       0.20601612 -0.34994873 -0.032060742 -0.44280162
000110 30 12 9b 3e 1f 05 81 3d 94 4f 0c 3f 4a ca d5 3e
       0.30287313 0.06299805 0.54808927 0.41755897
000120 2c 6b 7e 3e d0 ce 06 3d 3e 12 de bd 20 c8 c7 be
       0.2484557 0.032912076 -0.10843323 -0.3901987
000130 8c b6 fe be 18 7a 23 3e c4 2a 38 3f 66 d1 a7 3e
       -0.49748647 0.15964544 0.71940255 0.32776946
000140 8c 7c 1a be 1c 8c 2b 3e 60 68 0d be d0 a3 30 be
       -0.15086573 0.16752666 -0.13809347 -0.1724999
000150 9e b6 82 3e 1d 7e b8 3f e0 af f3 be 8c 4a d8 3e
       0.2552995 1.4413487 -0.4759512 0.42244375
000160 89 0a 5b be 74 d2 a5 be 0a 73 6e 3f 32 76 f3 be
       -0.21390738 -0.32387125 0.93144286 -0.47551113
000170 df 5f 06 3f fb 67 24 bf 46 c7 b1 3e 18 25 e3 be
       0.5249004 -0.6422116 0.34722346 -0.44364238
000180 70 84 42 3f 68 4c fd bd ce cc e7 3e ff 17 5c bf
       0.75983334 -0.12368089 0.4527344 -0.85974115
000190 e0 1f 07 bd 94 15 8c 3f 50 d4 18 bd f0 0b 91 3e
       -0.032989383 1.0944085 -0.037311852 0.2832942
0001a0 d7 53 8c 3f 8e 2f 9c be 36 ee 05 bf 80 cd 0f 3c
       1.0963086 -0.3050503 -0.52316606 0.008777022
0001b0 3e a3 1b 3f 1a 5a 2b bf 2c bb 65 be 6c c6 7e 3e
       0.6079596 -0.6693436 -0.22434682 0.2488038
0001c0 cb 45 d6 3e a4 2c 12 3e 58 64 b2 be 25 4e 13 3f
       0.41850123 0.14274842 -0.3484218 0.57541114
0001d0 60 af f3 3e 80 5a 22 3c dc d7 d3 be 3e ef 0d 3f
       0.47594738 0.009909272 -0.41375625 0.5544318
0001e0 c4 78 ce be f7 ea 8d 3e b3 67 73 3f 08 80 4e be
       -0.40326512 0.27718326 0.9508011 -0.20166028
0001f0 e3 3b ea 3e 96 b3 10 3f d8 71 0e bc 20 89 0f 3d
       0.45748815 0.56524026 -0.008694135 0.035042882

fc2.weight f4 [128, 128]
000000 bc 7a d5 3c d5 bd ae bd 2a 7e 4c 3d 10 72 73 bc
       0.0260595 -0.08532301 0.049925007 -0.014858738
000010 2e ec 84 bd 91 be 8c 3d ce 32 43 3d 82 a8 f1 bc
       -0.0649036 0.06872285 0.047655873 -0.029499296
000020 51 1f 89 3d 28 b4 f3 3c 74 3b e4 3c a4 fd c5 3c
       0.06695426 0.029748991 0.02786038 0.024168797
000030 7a 16 7d 3d a0 8f 3a 3b 49 12 50 bd d0 c3 94 bb
       0.061789013 0.0028466955 -0.050798688 -0.004539944
000040 77 e0 86 3d c4 67 80 bc d6 25 62 bd b4 31 b0 3c
       0.06585782 -0.01567448 -0.055211864 0.021508075
000050 9e ba 54 3d f2 4c f7 bc f1 46 70 bd 03 d3 12 bd
       0.051935785 -0.030188058 -0.058661405 -0.035845768
000060 92 7a 6c 3d b6 af 4f bd 7a 0d 51 3d a1 3c a0 3d
       0.05773408 -0.05070468 0.051038243 0.07824064
000070 22 4f 41 bd 14 a3 cf 3c 47 cc 5f bd 94 c0 74 bd
       -0.047194608 0.025346316 -0.054638173 -0.05975397
000080 a6 9d 7b bd e5 65 a5 3d 86 ff 70 3d 80 16 2d bc
       -0.061429642 0.080760755 0.058837436 -0.010564446
000090 20 42 47 3b 6e 4b 68 3d 80 4f 61 3c 20 c7 46 3b
       0.0030404404 0.05671256 0.013751864 0.003033109
0000a0 40 d6 ab ba 7e 04 29 bd 82 e6 3b bd 72 dc 34 3d
       -0.0013110116 -0.04126405 -0.045874126 0.044155546
0000b0 40 dd a2 bb 86 c0 63 3d e0 a3 f2 3c c4 4d d5 bc
       -0.0049702227 0.055603527 0.029619157 -0.026038058
0000c0 f3 bb 19 bd 17 29 a5 3d 70 e5 a8 bc 00 fa 96 3a
       -0.037532758 0.08064478 -0.020617217 0.0011518598
0000d0 90 3b 4c 3c 62 9c ac bd d8 3a 15 3d 78 ec ab bc
       0.012465373 -0.08428265 0.03643307 -0.02098678
0000e0 42 b8 3d bd 87 8e 3b bd 2e c5 0a 3d 54 28 da bc
       -0.0463183 -0.04579022 0.03387945 -0.026630558
0000f0 af 53 a7 3d 9f 9c 9b bd 11 0b 64 bd e7 21 60 bd
       0.08170258 -0.075982325 -0.055674616 -0.05471983
000100 a0 e4 af bc a9 59 8a 3d d6 0f 1d bd 72 f9 ad bd
       -0.021471322 0.067553826 -0.03834518 -0.084948435
000110 69 f1 b2 3d 80 eb 00 3c eb 6a 2c bd 80 a4 10 bb
       0.087374516 0.007868648 -0.042094152 -0.0022070706
000120 28 85 f3 3c 7a e4 55 3d 28 a7 5b bc 92 3e 8f bd
       0.02972658 0.052219845 -0.013406552 -0.06994356
000130 17 47 8a bd 0c f7 02 3d 92 2e 16 3d 51 31 a0 3d
       -0.067518406 0.031973884 0.036665507 0.07821906
000140 c8 86 bc bc 68 93 03 bd 1a fe 41 3d 2a fc 56 bd
       -0.023013487 -0.032123 0.04736147 -0.052486576
000150 ba ff e4 bc fd e8 29 bd b8 17 7b 3c 8d 06 8d 3d
       -0.027953971 -0.04148196 0.015325479 0.06886015
000160 e0 7a f1 bc 63 17 89 3d 9b d5 9f 3d 04 31 c4 3c
       -0.029477537 0.06693914 0.07804414 0.023949154
000170 a0 b1 e9 bb 78 81 72 3c 10 b4 12 bc d4 5f 90 3c
       -0.0071317703 0.014801376 -0.008954063 0.01762382
000180 b2 1d ae bd 34 d8 b1 bc 5e b2 5b 3d 8f 74 7b bd
       -0.08501758 -0.021709539 0.0536369 -0.061390456
000190 ac 13 ac bc e2 30 ef bc 00 08 41 3a f6 c7 b4 bd
       -0.021005474 -0.029198114 0.0007363558 -0.08827202
0001a0 0e 1f ae bd 85 0a b1 3d 7c 84 e2 3c 9d 21 85 3d
       -0.08502017 0.086445846 0.027651064 0.06500552
0001b0 e2 bd 35 3d ec 1a b9 bc 22 e8 29 3d c7 24 62 bd
       0.04437054 -0.022595845 0.041481145 -0.055210855
0001c0 8f db 00 bd b5 57 96 bd ad ac aa bd b5 c4 70 bd
       -0.031459387 -0.073409475 -0.083337165 -0.058781344
0001d0 2b 4c a4 bd 3f 43 b1 3d 40 b5 67 bc 40 52 cd bb
       -0.080223404 0.08655404 -0.014142334 -0.0062659085
0001e0 11 be aa 3d 39 4f 43 bd b0 bc 78 3c 08 67 4a bc
       0.083370335 -0.047682974 0.015181705 -0.012353666
0001f0 e8 d9 6e bc c8 c0 b9 3c 58 45 b1 bc a1 32 a2 3d
       -0.01457832 0.022674933 -0.021639511 0.07919813
000200 b0 ba 7a bc 0f 0a 96 3d c5 32 28 3e ce f2 4d 3d
       -0.015303299 0.07326137 0.16425617 0.050280385
000210 0c 67 85 3d 91 39 ae bd 80 68 c2 be 20 68 47 bb
       0.06513795 -0.08507074 -0.37970352 -0.0030427054
000220 d5 70 01 3e 2e 09 4c 3d 88 f6 a4 bd d9 74 99 3d
       0.12640698 0.049813442 -0.080548346 0.0749299
000230 ea 17 10 bd c8 02 80 3c e6 f5 25 3d 6a e6 ef bc
       -0.035179056 0.015626326 0.04051771 -0.029284675
000240 5e 3f 68 3e b4 b8 9f bd 9d 76 12 3f db c8 c9 3e
       0.22680423 -0.07798901 0.5721224 0.39411053
000250 ea c4 6c 3d bc 9f e5 3c d8 f7 2d 3e b4 f7 db be
       0.05780498 0.028030269 0.16989076 -0.4296242
000260 cf 9d ef 3e 18 ea 0b 3e de 47 4c 3e 73 28 a0 bd
       0.46800086 0.13663518 0.1994929 -0.07820215
000270 b7 bd 5c 3e 68 92 b8 3c 5c 57 3c bc c6 4a 6e 3d
       0.21556745 0.02253075 -0.0114954375 0.05817678
000280 48 5e 99 3d d6 ae 44 3d 18 a2 18 bc 9d 1e 9a bd
       0.07488686 0.0480183 -0.00931599 -0.0752537
000290 a3 25 2a 3e 47 18 0c 3e 7b 90 af 3d cc 69 83 bd
       0.1661592 0.13681136 0.08572479 -0.064166635
0002a0 e7 d1 31 3e 00 8d 09 3b e9 87 36 3e 39 c7 6a 3d
       0.17365228 0.0020988584 0.17825283 0.0573189
0002b0 b2 fd 4c bd 79 6f 88 bd 54 71 50 3e d0 c4 ad bd
       -0.05004663 -0.06661887 0.20355731 -0.08484805
0002c0 03 ce 6f 3c 79 09 a3 3d 04 ff 85 bc be 97 83 3e
       0.014636519 0.07960791 -0.016356952 0.25701708
0002d0 2e 03 9c bd ee 4f 6a 3d f0 e6 bc 3b 05 92 e9 3d
       -0.07617794 0.057205133 0.0057648346 0.11404804
0002e0 fa f2 30 3d f9 e9 0d 3e 5d 89 5c 3d 1e de 23 3e
       0.04320047 0.13858785 0.053841937 0.160027
0002f0 5f 7c 8e 3d 50 cd 57 bd e2 16 16 3d 2b 25 8d 3d
       0.06957316 -0.052686036 0.036642917 0.06891855
000300 bf a0 5f bd 29 b0 33 bc 4c e6 ad 3c 18 73 93 3c
       -0.05459666 -0.010967293 0.021227978 0.017999217
000310 cf ca 61 3e 11 8f 13 3e b8 ea 23 3f 0b 4e 8b 3e
       0.22050022 0.14410044 0.6403003 0.2720798
000320 43 97 68 bd 50 63 4f 3c 42 72 15 3e c1 68 ae bd
       -0.05678488 0.012657955 0.14594367 -0.08516074
000330 0a 70 0e 3d 43 a5 98 bd c9 b8 a4 3e 08 dc ae 3c
       0.034774818 -0.07453396 0.3217223 0.021345153
000340 5f 39 95 3d 32 c8 51 3d 12 d3 71 3d fc c0 2d 3d
       0.07286333 0.05121631 0.059039183 0.042420372
000350 cc 63 10 3d b3 cc 61 3f 86 5a 3f bd 80 4a 31 ba
       0.035251424 0.8820297 -0.04671719 -0.00067631155
000360 5a c8 9a 3c 8e 3e 59 3d 00 41 6e 3e a2 67 28 3e
       0.018894363 0.053038172 0.23266983 0.16445783
000370 cf 07 29 3e 18 61 86 3d e2 71 a7 bd 90 ec 1a bc
       0.16506885 0.06561488 -0.08176018 -0.009455815
000380 82 27 30 3e 20 74 0a 3c 24 8c d3 bc ac 5f eb be
       0.17202571 0.008450538 -0.02582366 -0.4597143
000390 38 67 4c bc 13 7d c8 3e 59 e9 2b 3e 9f 49 8e 3e
       -0.012475781 0.39157924 0.16788234 0.27790543
0003a0 f5 fa 9c 3f a8 f8 29 3e a0 3b 42 3a be 7f 2a 3d
       1.2264086 0.16598761 0.00074093975 0.04162573
0003b0 68 97 8a 3d b7 35 35 bd 5b fa 86 3d ee af 8d 3b
       0.0676716 -0.04424068 0.0659072 0.004323951
0003c0 96 01 80 3e 96 2d 29 3d 97 f3 d2 3d 43 92 40 3e
       0.2500121 0.04130324 0.10300367 0.18805794
0003d0 da 50 8a 3e f4 3e 07 3d 30 5d 08 bd 40 15 54 3e
       0.2701481 0.03301902 -0.033291996 0.20711231
0003e0 9d 30 a1 bd 8c f2 43 3d 53 a5 85 3e b0 0f e3 bb
       -0.078706004 0.047838733 0.26102695 -0.0069293603
0003f0 aa 99 8c 3e 37 db 53 3e 5a f4 12 3e 9c c6 a1 3c
       0.27460986 0.20689093 0.14351025 0.019748025

fc2.bias f4 [128]
000000 d0 d3 1d bc 45 8d 8a 3f 0d f1 33 be ac 73 29 be
       -0.00963302 1.0824362 -0.17572422 -0.16548032
000010 ed 1e 52 bd 1d f4 ba bd 7a 06 2d 3d 21 3e 8d 3d
       -0.051299024 -0.09128592 0.042242505 0.06896616
000020 74 89 ff bc 34 cf c1 bc c0 d1 b9 3b e4 55 8b bd
       -0.031193472 -0.023658372 0.005670756 -0.06803492
000030 f6 4a 93 3f 8e b2 e2 bd 37 0d 16 be 48 28 34 be
       1.1507251 -0.11069213 -0.14653479 -0.17593491
000040 d7 1b ff bd b7 81 45 bd e0 c6 26 be 32 80 26 be
       -0.12456482 -0.04821941 -0.16286802 -0.1625984
000050 80 78 c7 3b d2 7e 83 bd 91 96 28 be 18 9e 02 bc
       0.0060873628 -0.064206734 -0.16463687 -0.007972263
000060 78 bd 3a 3c 9b c0 d9 bd 95 95 66 3f 18 0f b7 bc
       0.011397712 -0.1063244 0.90071994 -0.022346064
000070 b7 3b 82 3f 9a 65 85 bd dc b4 88 3c 43 3e 12 be
       1.0174474 -0.065135196 0.016687803 -0.14281563
000080 d6 6e 2b bd 4c 84 af bd c8 8e 46 3d fa 17 4a 3d
       -0.04185375 -0.085701555 0.04847601 0.049339272
000090 55 22 b0 3d 8e 8a 54 3d d8 4a e0 bd 59 14 8f 3d
       0.08600298 0.05188995 -0.10951775 0.06986303
0000a0 28 0e e9 bc 0c de a5 bd 88 b4 31 bd 07 1c 84 3f
       -0.028449133 -0.08098993 -0.04338506 1.0321053
0000b0 00 40 b6 b7 27 05 89 3f bd 5e 8f bd 8f 4e 97 bd
       -2.1725893e-05 1.0704697 -0.07000492 -0.07388031
0000c0 e2 67 6a 3d dd bb 7d 3f a2 28 58 3d c0 14 0c bd
       0.057227977 0.9911478 0.052773125 -0.034199476
0000d0 e5 5d 7e 3f 55 d3 ec bd 52 b9 9f 3f 95 e7 82 bd
       0.9936202 -0.11563746 1.247843 -0.06391827
0000e0 32 74 06 be 2b 9e a7 3d 00 a7 c5 39 4d d9 fd bd
       -0.13130262 0.08184465 0.00037699193 -0.123949625
0000f0 4e b9 5f 3d d6 06 6c 3c c0 95 89 bc a7 eb 34 be
       0.05462008 0.014405927 -0.01679504 -0.17668019
000100 15 b6 26 bd 51 1b 89 3f 42 66 0c 3d 94 2a f8 bd
       -0.04070099 1.0711461 0.03427721 -0.12117496
000110 d3 2d a3 bd d6 c5 1e 3d 9d bc 9e bd 17 d0 37 bd
       -0.07967725 0.03876289 -0.07750819 -0.044876184
000120 e5 92 34 be 17 5f d2 bd cf c1 a9 3d 0a da 80 3f
       -0.17634161 -0.10272043 0.08288919 1.006654
000130 90 89 ad bb 86 e9 41 3d 28 04 68 3d 84 40 b9 bd
       -0.0052959397 0.047341846 0.05664459 -0.090455085
000140 b3 72 8f bd 42 8c 6f 3f a9 d9 15 be ff d8 b3 bd
       -0.07004299 0.9357339 -0.14633812 -0.08781623
000150 29 ee 96 3f 1b a5 4a bd 00 f9 60 bd 59 0e 1f be
       1.1791431 -0.049473863 -0.054924965 -0.15532817
000160 e9 ff 1f be b2 70 7c bd 07 fd a7 3d 82 fe 84 bf
       -0.15624966 -0.061630912 0.08202558 -1.039017
000170 77 fe 5d 3d 66 60 36 3d 8f 2a 5b 3f f0 d7 11 3c
       0.054197755 0.044525526 0.85611814 0.008901581
000180 7a f2 e0 3d 46 7e b1 bd c0 ac 11 bd 6c 0e 00 be
       0.10983749 -0.08666663 -0.035565138 -0.12505502
000190 1f 2a bb bd fa 5a 55 bd 8b 35 18 be 81 53 84 3f
       -0.09138893 -0.052088715 -0.14864175 1.0337983
0001a0 ae 3a 4c 3d e9 47 e7 3c bb 81 90 3d 50 00 ab bc
       0.04986065 0.028232532 0.07055994 -0.020874172
0001b0 8f 03 b4 3d 62 1c 63 3f 62 e8 3a 3d 0f 1d e9 bd
       0.08789741 0.88715184 0.045631774 -0.113824956
0001c0 ec a2 86 bc f0 9e 49 3c 44 ad 96 bc b1 3c 92 3d
       -0.01643511 0.01230596 -0.018393166 0.07140482
0001d0 5d ba 9f 3d 5f 8d 16 be 80 da 8d ba 4c d4 1b be
       0.07799218 -0.14702366 -0.0010822564 -0.15217704
0001e0 f1 67 e3 bd af 22 07 be 21 3d 94 bd 69 2b 89 3f
       -0.111038096 -0.13196824 -0.07238222 1.0716373
0001f0 38 92 49 3c a5 58 9d 3d 94 88 53 3d 6e 21 80 3f
       0.012302928 0.07682923 0.051643923 1.0010202

fc3.weight f4 [3, 128]
000000 b6 72 6d bd 62 8c 24 3e 5a 62 f6 3d aa dd dc 3c
       -0.057970725 0.16069177 0.12030478 0.026961166
000010 b2 a2 dc bc b4 72 b7 3d 98 1f bd bc e0 fa b0 bc
       -0.026933048 0.08957425 -0.023086354 -0.021604002
000020 ca 9e 94 bd 63 2e 9a 3d c0 7b 12 3d 95 5d 3a 3d
       -0.07256849 0.07528379 0.03576255 0.045499403
000030 e0 78 ee 3e 7a 4b 88 3d c0 69 4e 3d 65 41 b7 3d
       0.46576595 0.06655021 0.05039382 0.0894802
000040 86 fe 21 3d 40 df e0 ba d9 e9 ba 3d 44 12 03 3e
       0.039549373 -0.0017156377 0.09126634 0.12799937
000050 97 3d 9d 3d 83 a1 1b 3e 56 c2 02 3e 75 b4 2e bd
       0.07677763 0.1519833 0.12769446 -0.042652566
000060 58 62 f1 3c 8f 37 ef 3d d8 7d ec 3d e6 ea a8 3d
       0.02946584 0.11680519 0.1154744 0.08247928
000070 e4 eb 84 3e c8 9b 4c 3c 30 b6 53 bc 32 35 52 3d
       0.2596122 0.012488313 -0.012921855 0.051320262
000080 63 58 2f 3e 70 4b 86 bb a6 0f d8 bd 2c 29 f7 bc
       0.1712356 -0.0040983483 -0.1054986 -0.030171
000090 51 1b a9 3d da fb 43 3d 68 85 2e 3d 0e 6b 14 bd
       0.08257163 0.047847606 0.042607695 -0.036234908
0000a0 55 d9 af 3d d3 d0 a4 bd 7c 0a e6 3c 85 2e 75 3e
       0.08586375 -0.080476426 0.028081171 0.23943527
0000b0 48 79 20 bc b7 26 2d 3e 68 63 a4 3c f2 d4 e2 3d
       -0.009794541 0.169093 0.020066932 0.11075772
0000c0 b8 a3 2e bd 59 59 31 3e d0 e7 ba bc 7c 45 8c 3c
       -0.042636603 0.1731924 -0.022815615 0.017122976
0000d0 f3 58 b4 3d 67 4b 54 3d 7b 15 e3 3e b2 a5 39 3e
       0.08806028 0.05182972 0.44352326 0.18129614
0000e0 66 70 75 3d f8 7a ba bc 26 f9 43 bd 33 61 a4 bd
       0.059921645 -0.022763714 -0.04784503 -0.08026352
0000f0 00 18 a3 38 16 03 aa bd 5e ab af 3d 42 c5 8b 3d
       7.776916e-05 -0.0830137 0.085776076 0.06824733
000100 f2 1e 4b 3d 24 cf 4e 3e a1 c7 af 3d 27 50 ee 3d
       0.04959006 0.20196205 0.08582998 0.116363816
000110 48 f4 fa 3c b8 ea b4 bd f8 f9 d4 3d 0d 63 94 3d
       0.03063406 -0.088338315 0.1039924 0.07245455
000120 83 c4 17 bd 78 f0 80 bc 20 a0 da 3c e0 2e 5b 3e
       -0.037052643 -0.015739664 0.026687682 0.214046
000130 78 95 06 bc d2 19 0e 3e 42 e0 f1 3c e8 15 18 be
       -0.008214347 0.13877037 0.02952588 -0.14852107
000140 bc c0 c8 3d 58 df bd 3d e0 94 64 3c 16 bc a8 bd
       0.09802386 0.09271115 0.01395151 -0.082389995
000150 35 c1 87 3e fc b4 3f be ac a2 07 3e 29 2b fd 3d
       0.26514593 -0.18721384 0.13245648 0.12361748
000160 08 1b a1 3c e3 6b 92 3d 20 00 fb bb 01 87 85 bd
       0.01966621 0.07149484 -0.007659927 -0.065198906
000170 e2 49 2c 3d 60 ae 27 bd cf 12 3b 3e fd 95 89 bd
       0.042062648 -0.04093778 0.18268894 -0.06718061
000180 46 dd eb 3d cc bb 9c 3c c0 b4 56 3d 32 10 27 3d
       0.11516814 0.019132517 0.05241847 0.04078693
000190 dc 76 f8 3d 23 e9 99 3d 37 d5 8c 3d b9 a8 27 3e
       0.121320456 0.075151704 0.06876605 0.16372956
0001a0 2b 7e b4 bd 4b 07 e3 bd 41 45 88 3d 38 2f 6b 3d
       -0.08813127 -0.110853754 0.06653834 0.05741808
0001b0 06 64 41 3d 8f 01 6c 3e 2e 7a e7 bc ad 67 21 3e
       0.04721453 0.2304747 -0.028256502 0.15762205
0001c0 28 32 1b bc 22 ff a7 bd 20 c3 18 bc d8 37 71 bc
       -0.009472407 -0.082029596 -0.009323865 -0.014722787
0001d0 17 bf 85 3d 19 a2 eb 3d 8e 4e 18 3e f1 8a 27 3e
       0.06530588 0.11505527 0.14873716 0.16361596
0001e0 78 6d de 3c 22 c8 ab 3d 80 07 d5 3a cb 5b 39 3e
       0.027151808 0.08387782 0.0016252846 0.18101422
0001f0 0d 55 a3 3d 05 c4 90 bd 6a 92 11 3e ea 09 4a 3e
       0.079752065 -0.07068638 0.14216009 0.19730344
000200 3e 20 77 3d 39 d4 55 3e bc 7b 9f 3d f0 d8 25 3e
       0.060333483 0.20881738 0.07787272 0.16196036
000210 3c fd 9c bc 38 2e 70 3d 60 37 25 3c cf 9c 87 bd
       -0.01916372 0.058637828 0.010084003 -0.06621706
000220 e0 fb 68 3c 6a b6 04 bd 1a 4b 9f bd e8 7c 9d 3d
       0.014220208 -0.032400526 -0.07777996 0.076898396
000230 2e 47 01 3f 37 44 9f 3d 40 6b a0 3c b7 94 6c 3d
       0.50499237 0.07776683 0.01958239 0.057759013
000240 1b e6 9e 3d a4 6f 9e bd fb fa 66 3d ea c9 96 3d
       0.07758733 -0.077361375 0.056391697 0.07362731
000250 d8 e7 b9 bc d8 07 cc 3d 1e 40 b4 3d 98 b8 fc 3c
       -0.02269356 0.099624336 0.08801292 0.03084974
000260 cf 52 89 3d b5 71 6b 3d 80 48 53 3e ef f0 2c 3e
       0.067052476 0.057481486 0.20633125 0.16888784
000270 f8 cc 66 3e 88 31 d3 3d dc 92 89 bc f4 6d 08 3e
       0.22539127 0.10312182 -0.01679366 0.13323194
000280 41 3b 26 3e e2 75 6d bd f4 d7 59 bd 27 22 22 bd
       0.16233541 -0.05797375 -0.053184465 -0.03958335
000290 b2 aa 78 3d 9b 1c 0f bd 2e 72 c0 3d fa 81 4c 3d
       0.060709663 -0.03493939 0.09396778 0.049928643
0002a0 46 be ac 3d b4 b2 c5 3c cf 21 8c bd 53 ff 44 3e
       0.08434729 0.024133064 -0.06842386 0.19238023
0002b0 4b 6a 0a bd 36 0d 64 3e b9 21 f5 3d 74 c2 91 3d
       -0.033792775 0.22270665 0.11969323 0.07117167
0002c0 7a 5f 8f bd 7b fc 1a 3e 00 21 f7 bb 0e 26 ec 3d
       -0.070006326 0.15135376 -0.0075417757 0.11530696
0002d0 14 8b 64 3e 80 22 69 3d 37 17 b6 3e f6 4f 13 3d
       0.22318679 0.056917667 0.35564587 0.03596493
0002e0 ac 27 8a 3d 12 ec 7d bd fc 5a 8c 3c 90 39 68 3c
       0.06745848 -0.061992712 0.017133228 0.01417388
0002f0 e4 43 d0 3c 34 34 16 bd e3 c4 a1 3d ec b6 ba 3d
       0.025422998 -0.03667088 0.07898881 0.09116921
000300 a4 70 94 bc 44 63 12 3e 1c f2 9a 3c 8e 07 a1 3d
       -0.018120117 0.1429568 0.018914275 0.07862769
000310 cc 64 ad bd de 9e 3a 3d 44 4f 8e 3d c8 e6 ce bc
       -0.08466491 0.045561664 0.069487125 -0.02525653
000320 3f 67 89 bd 00 f2 2c 3d 7e 4e 4e 3d a8 80 2c 3e
       -0.06709146 0.042222977 0.050367825 0.16845953
000330 77 93 80 3d 25 0c 16 3e 66 0c 2a 3e c0 85 91 3a
       0.06278127 0.1465307 0.16606292 0.0011102483
000340 66 d7 75 3e 8c f1 61 3e ba 6c e0 3d 04 0e 4d bd
       0.24007949 0.22064799 0.10958238 -0.050062194
000350 71 c6 73 3e 50 4c 87 bd 0d a1 af 3d 2a a3 16 3d
       0.23806168 -0.06606352 0.0857564 0.0367767
000360 b0 e0 2a 3d 70 ab 8d 3d c6 0e 91 bd d9 b5 9a bd
       0.041718185 0.06917465 -0.07082896 -0.07554216
000370 60 56 a6 bb f0 fe 83 bc c9 68 09 3e 04 ce eb bc
       -0.0050762147 -0.016112775 0.13418879 -0.02878476
000380 a9 d3 2e 3e cd d3 bd 3d 14 64 9e 3d 50 16 8d 3d
       0.1707293 0.092689134 0.07733932 0.068890214
000390 84 0d 86 3c a8 6a 1a 3d 48 57 b2 bc 96 83 6d 3e
       0.016363867 0.03769937 -0.021770135 0.23194727
0003a0 88 eb 0d 3d 24 cd f9 bc 68 41 51 bc 02 5a b8 3d
       0.03464845 -0.030493326 -0.012771942 0.09001543
0003b0 f8 ff 2d bd 97 8c 00 3e dd 33 9c 3d 0a a7 2a 3d
       -0.04248044 0.12553631 0.0762708 0.041663207
0003c0 09 01 29 bd 55 da 50 bd 54 aa b3 bd 40 a2 75 bb
       -0.041260753 -0.050989468 -0.08772722 -0.0037480742
0003d0 91 2e 7b bd cc 00 bf 3c ee 4f c4 3d e9 7b 2c be
       -0.061323706 0.02331581 0.09585558 -0.16844143
0003e0 a0 93 0e bd 1a f7 d8 3d 9f b2 93 3d 3b a7 bd 3d
       -0.034808755 0.10594006 0.07211804 0.09260412
0003f0 46 92 1e 3d 0c 60 91 bc 13 56 04 3e ea 50 1e 3e
       0.038713716 -0.017745994 0.1292346 0.15460554

fc3.bias f4 [3]
000000 07 e9 91 3f 82 69 71 3f 28 92 a4 3f
       1.1399239 0.9430162 1.2857103
